{"class_name": "Model", "config": {"name": "CBAM_ON_NEW_DATA_CV7_fixed_redundancy_no_z_class_no_weight", "layers": [{"class_name": "InputLayer", "config": {"batch_input_shape": [null, 61, 100], "dtype": "float32", "sparse": false, "ragged": false, "name": "input_1"}, "name": "input_1", "inbound_nodes": []}, {"class_name": "Conv1D", "config": {"name": "conv1d_29", "trainable": true, "dtype": {"class_name": "Policy", "config": {"name": "mixed_float16"}}, "filters": 128, "kernel_size": [1], "strides": [1], "padding": "same", "data_format": "channels_last", "dilation_rate": [1], "activation": "linear", "use_bias": true, "kernel_initializer": {"class_name": "GlorotUniform", "config": {"seed": null}}, "bias_initializer": {"class_name": "Zeros", "config": {}}, "kernel_regularizer": null, "bias_regularizer": null, "activity_regularizer": null, "kernel_constraint": null, "bias_constraint": null}, "name": "conv1d_29", "inbound_nodes": [[["input_1", 0, 0, {}]]]}, {"class_name": "Activation", "config": {"name": "activation_36", "trainable": true, "dtype": {"class_name": "Policy", "config": {"name": "mixed_float16"}}, "activation": {"class_name": "Mish", "config": {"name": "mish", "trainable": true, "dtype": {"class_name": "Policy", "config": {"name": "mixed_float16"}}, "activation": "Addons>mish"}}}, "name": "activation_36", "inbound_nodes": [[["conv1d_29", 0, 0, {}]]]}, {"class_name": "Dropout", "config": {"name": "dropout_24", "trainable": true, "dtype": {"class_name": "Policy", "config": {"name": "mixed_float16"}}, "rate": 0.3, "noise_shape": null, "seed": null}, "name": "dropout_24", "inbound_nodes": [[["activation_36", 0, 0, {}]]]}, {"class_name": "BatchNormalization", "config": {"name": "batch_normalization_29", "trainable": true, "dtype": {"class_name": "Policy", "config": {"name": "mixed_float16"}}, "axis": [2], "momentum": 0.99, "epsilon": 0.001, "center": true, "scale": true, "beta_initializer": {"class_name": "Zeros", "config": {}}, "gamma_initializer": {"class_name": "Ones", "config": {}}, "moving_mean_initializer": {"class_name": "Zeros", "config": {}}, "moving_variance_initializer": {"class_name": "Ones", "config": {}}, "beta_regularizer": null, "gamma_regularizer": null, "beta_constraint": null, "gamma_constraint": null}, "name": "batch_normalization_29", "inbound_nodes": [[["dropout_24", 0, 0, {}]]]}, {"class_name": "Conv1D", "config": {"name": "conv1d_30", "trainable": true, "dtype": {"class_name": "Policy", "config": {"name": "mixed_float16"}}, "filters": 128, "kernel_size": [3], "strides": [1], "padding": "same", "data_format": "channels_last", "dilation_rate": [1], "activation": "linear", "use_bias": true, "kernel_initializer": {"class_name": "GlorotUniform", "config": {"seed": null}}, "bias_initializer": {"class_name": "Zeros", "config": {}}, "kernel_regularizer": null, "bias_regularizer": null, "activity_regularizer": null, "kernel_constraint": null, "bias_constraint": null}, "name": "conv1d_30", "inbound_nodes": [[["batch_normalization_29", 0, 0, {}]]]}, {"class_name": "Activation", "config": {"name": "activation_37", "trainable": true, "dtype": {"class_name": "Policy", "config": {"name": "mixed_float16"}}, "activation": {"class_name": "Mish", "config": {"name": "mish", "trainable": true, "dtype": {"class_name": "Policy", "config": {"name": "mixed_float16"}}, "activation": "Addons>mish"}}}, "name": "activation_37", "inbound_nodes": [[["conv1d_30", 0, 0, {}]]]}, {"class_name": "Dropout", "config": {"name": "dropout_25", "trainable": true, "dtype": {"class_name": "Policy", "config": {"name": "mixed_float16"}}, "rate": 0.3, "noise_shape": null, "seed": null}, "name": "dropout_25", "inbound_nodes": [[["activation_37", 0, 0, {}]]]}, {"class_name": "BatchNormalization", "config": {"name": "batch_normalization_30", "trainable": true, "dtype": {"class_name": "Policy", "config": {"name": "mixed_float16"}}, "axis": [2], "momentum": 0.99, "epsilon": 0.001, "center": true, "scale": true, "beta_initializer": {"class_name": "Zeros", "config": {}}, "gamma_initializer": {"class_name": "Ones", "config": {}}, "moving_mean_initializer": {"class_name": "Zeros", "config": {}}, "moving_variance_initializer": {"class_name": "Ones", "config": {}}, "beta_regularizer": null, "gamma_regularizer": null, "beta_constraint": null, "gamma_constraint": null}, "name": "batch_normalization_30", "inbound_nodes": [[["dropout_25", 0, 0, {}]]]}, {"class_name": "Conv1D", "config": {"name": "conv1d_27", "trainable": true, "dtype": {"class_name": "Policy", "config": {"name": "mixed_float16"}}, "filters": 128, "kernel_size": [1], "strides": [1], "padding": "same", "data_format": "channels_last", "dilation_rate": [1], "activation": "linear", "use_bias": true, "kernel_initializer": {"class_name": "GlorotUniform", "config": {"seed": null}}, "bias_initializer": {"class_name": "Zeros", "config": {}}, "kernel_regularizer": null, "bias_regularizer": null, "activity_regularizer": null, "kernel_constraint": null, "bias_constraint": null}, "name": "conv1d_27", "inbound_nodes": [[["input_1", 0, 0, {}]]]}, {"class_name": "Conv1D", "config": {"name": "conv1d_31", "trainable": true, "dtype": {"class_name": "Policy", "config": {"name": "mixed_float16"}}, "filters": 128, "kernel_size": [3], "strides": [1], "padding": "same", "data_format": "channels_last", "dilation_rate": [1], "activation": "linear", "use_bias": true, "kernel_initializer": {"class_name": "GlorotUniform", "config": {"seed": null}}, "bias_initializer": {"class_name": "Zeros", "config": {}}, "kernel_regularizer": null, "bias_regularizer": null, "activity_regularizer": null, "kernel_constraint": null, "bias_constraint": null}, "name": "conv1d_31", "inbound_nodes": [[["batch_normalization_30", 0, 0, {}]]]}, {"class_name": "Activation", "config": {"name": "activation_34", "trainable": true, "dtype": {"class_name": "Policy", "config": {"name": "mixed_float16"}}, "activation": {"class_name": "Mish", "config": {"name": "mish", "trainable": true, "dtype": {"class_name": "Policy", "config": {"name": "mixed_float16"}}, "activation": "Addons>mish"}}}, "name": "activation_34", "inbound_nodes": [[["conv1d_27", 0, 0, {}]]]}, {"class_name": "Activation", "config": {"name": "activation_38", "trainable": true, "dtype": {"class_name": "Policy", "config": {"name": "mixed_float16"}}, "activation": {"class_name": "Mish", "config": {"name": "mish", "trainable": true, "dtype": {"class_name": "Policy", "config": {"name": "mixed_float16"}}, "activation": "Addons>mish"}}}, "name": "activation_38", "inbound_nodes": [[["conv1d_31", 0, 0, {}]]]}, {"class_name": "Dropout", "config": {"name": "dropout_22", "trainable": true, "dtype": {"class_name": "Policy", "config": {"name": "mixed_float16"}}, "rate": 0.3, "noise_shape": null, "seed": null}, "name": "dropout_22", "inbound_nodes": [[["activation_34", 0, 0, {}]]]}, {"class_name": "Dropout", "config": {"name": "dropout_26", "trainable": true, "dtype": {"class_name": "Policy", "config": {"name": "mixed_float16"}}, "rate": 0.3, "noise_shape": null, "seed": null}, "name": "dropout_26", "inbound_nodes": [[["activation_38", 0, 0, {}]]]}, {"class_name": "BatchNormalization", "config": {"name": "batch_normalization_27", "trainable": true, "dtype": {"class_name": "Policy", "config": {"name": "mixed_float16"}}, "axis": [2], "momentum": 0.99, "epsilon": 0.001, "center": true, "scale": true, "beta_initializer": {"class_name": "Zeros", "config": {}}, "gamma_initializer": {"class_name": "Ones", "config": {}}, "moving_mean_initializer": {"class_name": "Zeros", "config": {}}, "moving_variance_initializer": {"class_name": "Ones", "config": {}}, "beta_regularizer": null, "gamma_regularizer": null, "beta_constraint": null, "gamma_constraint": null}, "name": "batch_normalization_27", "inbound_nodes": [[["dropout_22", 0, 0, {}]]]}, {"class_name": "BatchNormalization", "config": {"name": "batch_normalization_31", "trainable": true, "dtype": {"class_name": "Policy", "config": {"name": "mixed_float16"}}, "axis": [2], "momentum": 0.99, "epsilon": 0.001, "center": true, "scale": true, "beta_initializer": {"class_name": "Zeros", "config": {}}, "gamma_initializer": {"class_name": "Ones", "config": {}}, "moving_mean_initializer": {"class_name": "Zeros", "config": {}}, "moving_variance_initializer": {"class_name": "Ones", "config": {}}, "beta_regularizer": null, "gamma_regularizer": null, "beta_constraint": null, "gamma_constraint": null}, "name": "batch_normalization_31", "inbound_nodes": [[["dropout_26", 0, 0, {}]]]}, {"class_name": "Conv1D", "config": {"name": "conv1d_26", "trainable": true, "dtype": {"class_name": "Policy", "config": {"name": "mixed_float16"}}, "filters": 128, "kernel_size": [1], "strides": [1], "padding": "same", "data_format": "channels_last", "dilation_rate": [1], "activation": "linear", "use_bias": true, "kernel_initializer": {"class_name": "GlorotUniform", "config": {"seed": null}}, "bias_initializer": {"class_name": "Zeros", "config": {}}, "kernel_regularizer": null, "bias_regularizer": null, "activity_regularizer": null, "kernel_constraint": null, "bias_constraint": null}, "name": "conv1d_26", "inbound_nodes": [[["input_1", 0, 0, {}]]]}, {"class_name": "Conv1D", "config": {"name": "conv1d_28", "trainable": true, "dtype": {"class_name": "Policy", "config": {"name": "mixed_float16"}}, "filters": 128, "kernel_size": [3], "strides": [1], "padding": "same", "data_format": "channels_last", "dilation_rate": [1], "activation": "linear", "use_bias": true, "kernel_initializer": {"class_name": "GlorotUniform", "config": {"seed": null}}, "bias_initializer": {"class_name": "Zeros", "config": {}}, "kernel_regularizer": null, "bias_regularizer": null, "activity_regularizer": null, "kernel_constraint": null, "bias_constraint": null}, "name": "conv1d_28", "inbound_nodes": [[["batch_normalization_27", 0, 0, {}]]]}, {"class_name": "Conv1D", "config": {"name": "conv1d_32", "trainable": true, "dtype": {"class_name": "Policy", "config": {"name": "mixed_float16"}}, "filters": 128, "kernel_size": [3], "strides": [1], "padding": "same", "data_format": "channels_last", "dilation_rate": [1], "activation": "linear", "use_bias": true, "kernel_initializer": {"class_name": "GlorotUniform", "config": {"seed": null}}, "bias_initializer": {"class_name": "Zeros", "config": {}}, "kernel_regularizer": null, "bias_regularizer": null, "activity_regularizer": null, "kernel_constraint": null, "bias_constraint": null}, "name": "conv1d_32", "inbound_nodes": [[["batch_normalization_31", 0, 0, {}]]]}, {"class_name": "Activation", "config": {"name": "activation_33", "trainable": true, "dtype": {"class_name": "Policy", "config": {"name": "mixed_float16"}}, "activation": {"class_name": "Mish", "config": {"name": "mish", "trainable": true, "dtype": {"class_name": "Policy", "config": {"name": "mixed_float16"}}, "activation": "Addons>mish"}}}, "name": "activation_33", "inbound_nodes": [[["conv1d_26", 0, 0, {}]]]}, {"class_name": "Activation", "config": {"name": "activation_35", "trainable": true, "dtype": {"class_name": "Policy", "config": {"name": "mixed_float16"}}, "activation": {"class_name": "Mish", "config": {"name": "mish", "trainable": true, "dtype": {"class_name": "Policy", "config": {"name": "mixed_float16"}}, "activation": "Addons>mish"}}}, "name": "activation_35", "inbound_nodes": [[["conv1d_28", 0, 0, {}]]]}, {"class_name": "Activation", "config": {"name": "activation_39", "trainable": true, "dtype": {"class_name": "Policy", "config": {"name": "mixed_float16"}}, "activation": {"class_name": "Mish", "config": {"name": "mish", "trainable": true, "dtype": {"class_name": "Policy", "config": {"name": "mixed_float16"}}, "activation": "Addons>mish"}}}, "name": "activation_39", "inbound_nodes": [[["conv1d_32", 0, 0, {}]]]}, {"class_name": "Dropout", "config": {"name": "dropout_21", "trainable": true, "dtype": {"class_name": "Policy", "config": {"name": "mixed_float16"}}, "rate": 0.3, "noise_shape": null, "seed": null}, "name": "dropout_21", "inbound_nodes": [[["activation_33", 0, 0, {}]]]}, {"class_name": "Dropout", "config": {"name": "dropout_23", "trainable": true, "dtype": {"class_name": "Policy", "config": {"name": "mixed_float16"}}, "rate": 0.3, "noise_shape": null, "seed": null}, "name": "dropout_23", "inbound_nodes": [[["activation_35", 0, 0, {}]]]}, {"class_name": "Dropout", "config": {"name": "dropout_27", "trainable": true, "dtype": {"class_name": "Policy", "config": {"name": "mixed_float16"}}, "rate": 0.3, "noise_shape": null, "seed": null}, "name": "dropout_27", "inbound_nodes": [[["activation_39", 0, 0, {}]]]}, {"class_name": "BatchNormalization", "config": {"name": "batch_normalization_26", "trainable": true, "dtype": {"class_name": "Policy", "config": {"name": "mixed_float16"}}, "axis": [2], "momentum": 0.99, "epsilon": 0.001, "center": true, "scale": true, "beta_initializer": {"class_name": "Zeros", "config": {}}, "gamma_initializer": {"class_name": "Ones", "config": {}}, "moving_mean_initializer": {"class_name": "Zeros", "config": {}}, "moving_variance_initializer": {"class_name": "Ones", "config": {}}, "beta_regularizer": null, "gamma_regularizer": null, "beta_constraint": null, "gamma_constraint": null}, "name": "batch_normalization_26", "inbound_nodes": [[["dropout_21", 0, 0, {}]]]}, {"class_name": "BatchNormalization", "config": {"name": "batch_normalization_28", "trainable": true, "dtype": {"class_name": "Policy", "config": {"name": "mixed_float16"}}, "axis": [2], "momentum": 0.99, "epsilon": 0.001, "center": true, "scale": true, "beta_initializer": {"class_name": "Zeros", "config": {}}, "gamma_initializer": {"class_name": "Ones", "config": {}}, "moving_mean_initializer": {"class_name": "Zeros", "config": {}}, "moving_variance_initializer": {"class_name": "Ones", "config": {}}, "beta_regularizer": null, "gamma_regularizer": null, "beta_constraint": null, "gamma_constraint": null}, "name": "batch_normalization_28", "inbound_nodes": [[["dropout_23", 0, 0, {}]]]}, {"class_name": "BatchNormalization", "config": {"name": "batch_normalization_32", "trainable": true, "dtype": {"class_name": "Policy", "config": {"name": "mixed_float16"}}, "axis": [2], "momentum": 0.99, "epsilon": 0.001, "center": true, "scale": true, "beta_initializer": {"class_name": "Zeros", "config": {}}, "gamma_initializer": {"class_name": "Ones", "config": {}}, "moving_mean_initializer": {"class_name": "Zeros", "config": {}}, "moving_variance_initializer": {"class_name": "Ones", "config": {}}, "beta_regularizer": null, "gamma_regularizer": null, "beta_constraint": null, "gamma_constraint": null}, "name": "batch_normalization_32", "inbound_nodes": [[["dropout_27", 0, 0, {}]]]}, {"class_name": "Concatenate", "config": {"name": "concatenate_6", "trainable": true, "dtype": {"class_name": "Policy", "config": {"name": "mixed_float16"}}, "axis": -1}, "name": "concatenate_6", "inbound_nodes": [[["batch_normalization_26", 0, 0, {}], ["batch_normalization_28", 0, 0, {}], ["batch_normalization_32", 0, 0, {}]]]}, {"class_name": "BatchNormalization", "config": {"name": "batch_normalization_33", "trainable": true, "dtype": {"class_name": "Policy", "config": {"name": "mixed_float16"}}, "axis": [2], "momentum": 0.99, "epsilon": 0.001, "center": true, "scale": true, "beta_initializer": {"class_name": "Zeros", "config": {}}, "gamma_initializer": {"class_name": "Ones", "config": {}}, "moving_mean_initializer": {"class_name": "Zeros", "config": {}}, "moving_variance_initializer": {"class_name": "Ones", "config": {}}, "beta_regularizer": null, "gamma_regularizer": null, "beta_constraint": null, "gamma_constraint": null}, "name": "batch_normalization_33", "inbound_nodes": [[["concatenate_6", 0, 0, {}]]]}, {"class_name": "GlobalAveragePooling1D", "config": {"name": "global_average_pooling1d_3", "trainable": true, "dtype": {"class_name": "Policy", "config": {"name": "mixed_float16"}}, "data_format": "channels_last"}, "name": "global_average_pooling1d_3", "inbound_nodes": [[["batch_normalization_33", 0, 0, {}]]]}, {"class_name": "GlobalMaxPooling1D", "config": {"name": "global_max_pooling1d_3", "trainable": true, "dtype": {"class_name": "Policy", "config": {"name": "mixed_float16"}}, "data_format": "channels_last"}, "name": "global_max_pooling1d_3", "inbound_nodes": [[["batch_normalization_33", 0, 0, {}]]]}, {"class_name": "Reshape", "config": {"name": "reshape_6", "trainable": true, "dtype": {"class_name": "Policy", "config": {"name": "mixed_float16"}}, "target_shape": [1, 384]}, "name": "reshape_6", "inbound_nodes": [[["global_average_pooling1d_3", 0, 0, {}]]]}, {"class_name": "Reshape", "config": {"name": "reshape_7", "trainable": true, "dtype": {"class_name": "Policy", "config": {"name": "mixed_float16"}}, "target_shape": [1, 384]}, "name": "reshape_7", "inbound_nodes": [[["global_max_pooling1d_3", 0, 0, {}]]]}, {"class_name": "Dense", "config": {"name": "dense_6", "trainable": true, "dtype": {"class_name": "Policy", "config": {"name": "mixed_float16"}}, "units": 48, "activation": "linear", "use_bias": true, "kernel_initializer": {"class_name": "VarianceScaling", "config": {"scale": 2.0, "mode": "fan_in", "distribution": "truncated_normal", "seed": null}}, "bias_initializer": {"class_name": "Zeros", "config": {}}, "kernel_regularizer": null, "bias_regularizer": null, "activity_regularizer": null, "kernel_constraint": null, "bias_constraint": null}, "name": "dense_6", "inbound_nodes": [[["reshape_6", 0, 0, {}]], [["reshape_7", 0, 0, {}]]]}, {"class_name": "Activation", "config": {"name": "activation_40", "trainable": true, "dtype": {"class_name": "Policy", "config": {"name": "mixed_float16"}}, "activation": "relu"}, "name": "activation_40", "inbound_nodes": [[["dense_6", 0, 0, {}]], [["dense_6", 1, 0, {}]]]}, {"class_name": "Dense", "config": {"name": "dense_7", "trainable": true, "dtype": {"class_name": "Policy", "config": {"name": "mixed_float16"}}, "units": 384, "activation": "linear", "use_bias": true, "kernel_initializer": {"class_name": "VarianceScaling", "config": {"scale": 2.0, "mode": "fan_in", "distribution": "truncated_normal", "seed": null}}, "bias_initializer": {"class_name": "Zeros", "config": {}}, "kernel_regularizer": null, "bias_regularizer": null, "activity_regularizer": null, "kernel_constraint": null, "bias_constraint": null}, "name": "dense_7", "inbound_nodes": [[["activation_40", 0, 0, {}]], [["activation_40", 1, 0, {}]]]}, {"class_name": "Activation", "config": {"name": "activation_41", "trainable": true, "dtype": {"class_name": "Policy", "config": {"name": "mixed_float16"}}, "activation": "sigmoid"}, "name": "activation_41", "inbound_nodes": [[["dense_7", 0, 0, {}]], [["dense_7", 1, 0, {}]]]}, {"class_name": "Add", "config": {"name": "add_3", "trainable": true, "dtype": {"class_name": "Policy", "config": {"name": "mixed_float16"}}}, "name": "add_3", "inbound_nodes": [[["activation_41", 0, 0, {}], ["activation_41", 1, 0, {}]]]}, {"class_name": "Activation", "config": {"name": "activation_42", "trainable": true, "dtype": {"class_name": "Policy", "config": {"name": "mixed_float16"}}, "activation": "sigmoid"}, "name": "activation_42", "inbound_nodes": [[["add_3", 0, 0, {}]]]}, {"class_name": "Multiply", "config": {"name": "multiply_6", "trainable": true, "dtype": {"class_name": "Policy", "config": {"name": "mixed_float16"}}}, "name": "multiply_6", "inbound_nodes": [[["batch_normalization_33", 0, 0, {}], ["activation_42", 0, 0, {}]]]}, {"class_name": "Lambda", "config": {"name": "lambda_9", "trainable": true, "dtype": {"class_name": "Policy", "config": {"name": "mixed_float16"}}, "function": ["4wEAAAAAAAAAAQAAAAUAAABTAAAAcxAAAAB0AGoBfABkAWQCZAONA1MAKQRO6f////9UKQLaBGF4\naXPaCGtlZXBkaW1zKQLaAUvaBG1lYW4pAdoBeKkAcgcAAAD6TS4vY2JhbV9pbmNlcHRpb25fdGZp\nb19uZXdfZG91YmxlX2F0dGVudGlvbl9yYWRhbV9sYXN0X2xheWVyX2F0dGVudGlvbl9taXNoLnB5\n2gg8bGFtYmRhPmMBAADzAAAAAA==\n", null, null], "function_type": "lambda", "module": "__main__", "output_shape": null, "output_shape_type": "raw", "output_shape_module": null, "arguments": {}}, "name": "lambda_9", "inbound_nodes": [[["multiply_6", 0, 0, {}]]]}, {"class_name": "Lambda", "config": {"name": "lambda_10", "trainable": true, "dtype": {"class_name": "Policy", "config": {"name": "mixed_float16"}}, "function": ["4wEAAAAAAAAAAQAAAAUAAABTAAAAcxAAAAB0AGoBfABkAWQCZAONA1MAKQRO6f////9UKQLaBGF4\naXPaCGtlZXBkaW1zKQLaAUvaA21heCkB2gF4qQByBwAAAPpNLi9jYmFtX2luY2VwdGlvbl90Zmlv\nX25ld19kb3VibGVfYXR0ZW50aW9uX3JhZGFtX2xhc3RfbGF5ZXJfYXR0ZW50aW9uX21pc2gucHna\nCDxsYW1iZGE+ZgEAAPMAAAAA\n", null, null], "function_type": "lambda", "module": "__main__", "output_shape": null, "output_shape_type": "raw", "output_shape_module": null, "arguments": {}}, "name": "lambda_10", "inbound_nodes": [[["multiply_6", 0, 0, {}]]]}, {"class_name": "Concatenate", "config": {"name": "concatenate_7", "trainable": true, "dtype": {"class_name": "Policy", "config": {"name": "mixed_float16"}}, "axis": -1}, "name": "concatenate_7", "inbound_nodes": [[["lambda_9", 0, 0, {}], ["lambda_10", 0, 0, {}]]]}, {"class_name": "Conv1D", "config": {"name": "conv1d_33", "trainable": true, "dtype": {"class_name": "Policy", "config": {"name": "mixed_float16"}}, "filters": 1, "kernel_size": [7], "strides": [1], "padding": "same", "data_format": "channels_last", "dilation_rate": [1], "activation": "linear", "use_bias": false, "kernel_initializer": {"class_name": "GlorotUniform", "config": {"seed": null}}, "bias_initializer": {"class_name": "Zeros", "config": {}}, "kernel_regularizer": null, "bias_regularizer": null, "activity_regularizer": null, "kernel_constraint": null, "bias_constraint": null}, "name": "conv1d_33", "inbound_nodes": [[["concatenate_7", 0, 0, {}]]]}, {"class_name": "Conv1D", "config": {"name": "conv1d_34", "trainable": true, "dtype": {"class_name": "Policy", "config": {"name": "mixed_float16"}}, "filters": 384, "kernel_size": [1], "strides": [1], "padding": "same", "data_format": "channels_last", "dilation_rate": [1], "activation": "linear", "use_bias": true, "kernel_initializer": {"class_name": "VarianceScaling", "config": {"scale": 2.0, "mode": "fan_in", "distribution": "truncated_normal", "seed": null}}, "bias_initializer": {"class_name": "Zeros", "config": {}}, "kernel_regularizer": {"class_name": "L1L2", "config": {"l1": 0.0, "l2": 9.999999747378752e-05}}, "bias_regularizer": null, "activity_regularizer": null, "kernel_constraint": null, "bias_constraint": null}, "name": "conv1d_34", "inbound_nodes": [[["input_1", 0, 0, {}]]]}, {"class_name": "Activation", "config": {"name": "activation_43", "trainable": true, "dtype": {"class_name": "Policy", "config": {"name": "mixed_float16"}}, "activation": "sigmoid"}, "name": "activation_43", "inbound_nodes": [[["conv1d_33", 0, 0, {}]]]}, {"class_name": "BatchNormalization", "config": {"name": "batch_normalization_34", "trainable": true, "dtype": {"class_name": "Policy", "config": {"name": "mixed_float16"}}, "axis": [2], "momentum": 0.99, "epsilon": 0.001, "center": true, "scale": true, "beta_initializer": {"class_name": "Zeros", "config": {}}, "gamma_initializer": {"class_name": "Ones", "config": {}}, "moving_mean_initializer": {"class_name": "Zeros", "config": {}}, "moving_variance_initializer": {"class_name": "Ones", "config": {}}, "beta_regularizer": null, "gamma_regularizer": null, "beta_constraint": null, "gamma_constraint": null}, "name": "batch_normalization_34", "inbound_nodes": [[["conv1d_34", 0, 0, {}]]]}, {"class_name": "Multiply", "config": {"name": "multiply_7", "trainable": true, "dtype": {"class_name": "Policy", "config": {"name": "mixed_float16"}}}, "name": "multiply_7", "inbound_nodes": [[["multiply_6", 0, 0, {}], ["activation_43", 0, 0, {}]]]}, {"class_name": "Lambda", "config": {"name": "lambda_11", "trainable": true, "dtype": {"class_name": "Policy", "config": {"name": "mixed_float16"}}, "function": ["4wIAAAAAAAAAAgAAAAMAAABTAAAAcxQAAAB8AGQBGQB8AGQCGQB8ARQAFwBTACkDTukAAAAA6QEA\nAACpACkC2gZpbnB1dHPaBXNjYWxlcgMAAAByAwAAAPpNLi9jYmFtX2luY2VwdGlvbl90ZmlvX25l\nd19kb3VibGVfYXR0ZW50aW9uX3JhZGFtX2xhc3RfbGF5ZXJfYXR0ZW50aW9uX21pc2gucHnaCDxs\nYW1iZGE+8gEAAPMAAAAA\n", null, null], "function_type": "lambda", "module": "__main__", "output_shape": [61, 384], "output_shape_type": "raw", "output_shape_module": null, "arguments": {"scale": 0.2}}, "name": "lambda_11", "inbound_nodes": [[["batch_normalization_34", 0, 0, {}], ["multiply_7", 0, 0, {}]]]}, {"class_name": "Conv1D", "config": {"name": "conv1d_38", "trainable": true, "dtype": {"class_name": "Policy", "config": {"name": "mixed_float16"}}, "filters": 128, "kernel_size": [1], "strides": [1], "padding": "same", "data_format": "channels_last", "dilation_rate": [1], "activation": "linear", "use_bias": true, "kernel_initializer": {"class_name": "GlorotUniform", "config": {"seed": null}}, "bias_initializer": {"class_name": "Zeros", "config": {}}, "kernel_regularizer": null, "bias_regularizer": null, "activity_regularizer": null, "kernel_constraint": null, "bias_constraint": null}, "name": "conv1d_38", "inbound_nodes": [[["lambda_11", 0, 0, {}]]]}, {"class_name": "Activation", "config": {"name": "activation_47", "trainable": true, "dtype": {"class_name": "Policy", "config": {"name": "mixed_float16"}}, "activation": {"class_name": "Mish", "config": {"name": "mish", "trainable": true, "dtype": {"class_name": "Policy", "config": {"name": "mixed_float16"}}, "activation": "Addons>mish"}}}, "name": "activation_47", "inbound_nodes": [[["conv1d_38", 0, 0, {}]]]}, {"class_name": "Dropout", "config": {"name": "dropout_31", "trainable": true, "dtype": {"class_name": "Policy", "config": {"name": "mixed_float16"}}, "rate": 0.3, "noise_shape": null, "seed": null}, "name": "dropout_31", "inbound_nodes": [[["activation_47", 0, 0, {}]]]}, {"class_name": "BatchNormalization", "config": {"name": "batch_normalization_38", "trainable": true, "dtype": {"class_name": "Policy", "config": {"name": "mixed_float16"}}, "axis": [2], "momentum": 0.99, "epsilon": 0.001, "center": true, "scale": true, "beta_initializer": {"class_name": "Zeros", "config": {}}, "gamma_initializer": {"class_name": "Ones", "config": {}}, "moving_mean_initializer": {"class_name": "Zeros", "config": {}}, "moving_variance_initializer": {"class_name": "Ones", "config": {}}, "beta_regularizer": null, "gamma_regularizer": null, "beta_constraint": null, "gamma_constraint": null}, "name": "batch_normalization_38", "inbound_nodes": [[["dropout_31", 0, 0, {}]]]}, {"class_name": "Conv1D", "config": {"name": "conv1d_39", "trainable": true, "dtype": {"class_name": "Policy", "config": {"name": "mixed_float16"}}, "filters": 128, "kernel_size": [3], "strides": [1], "padding": "same", "data_format": "channels_last", "dilation_rate": [1], "activation": "linear", "use_bias": true, "kernel_initializer": {"class_name": "GlorotUniform", "config": {"seed": null}}, "bias_initializer": {"class_name": "Zeros", "config": {}}, "kernel_regularizer": null, "bias_regularizer": null, "activity_regularizer": null, "kernel_constraint": null, "bias_constraint": null}, "name": "conv1d_39", "inbound_nodes": [[["batch_normalization_38", 0, 0, {}]]]}, {"class_name": "Activation", "config": {"name": "activation_48", "trainable": true, "dtype": {"class_name": "Policy", "config": {"name": "mixed_float16"}}, "activation": {"class_name": "Mish", "config": {"name": "mish", "trainable": true, "dtype": {"class_name": "Policy", "config": {"name": "mixed_float16"}}, "activation": "Addons>mish"}}}, "name": "activation_48", "inbound_nodes": [[["conv1d_39", 0, 0, {}]]]}, {"class_name": "Dropout", "config": {"name": "dropout_32", "trainable": true, "dtype": {"class_name": "Policy", "config": {"name": "mixed_float16"}}, "rate": 0.3, "noise_shape": null, "seed": null}, "name": "dropout_32", "inbound_nodes": [[["activation_48", 0, 0, {}]]]}, {"class_name": "BatchNormalization", "config": {"name": "batch_normalization_39", "trainable": true, "dtype": {"class_name": "Policy", "config": {"name": "mixed_float16"}}, "axis": [2], "momentum": 0.99, "epsilon": 0.001, "center": true, "scale": true, "beta_initializer": {"class_name": "Zeros", "config": {}}, "gamma_initializer": {"class_name": "Ones", "config": {}}, "moving_mean_initializer": {"class_name": "Zeros", "config": {}}, "moving_variance_initializer": {"class_name": "Ones", "config": {}}, "beta_regularizer": null, "gamma_regularizer": null, "beta_constraint": null, "gamma_constraint": null}, "name": "batch_normalization_39", "inbound_nodes": [[["dropout_32", 0, 0, {}]]]}, {"class_name": "Conv1D", "config": {"name": "conv1d_36", "trainable": true, "dtype": {"class_name": "Policy", "config": {"name": "mixed_float16"}}, "filters": 128, "kernel_size": [1], "strides": [1], "padding": "same", "data_format": "channels_last", "dilation_rate": [1], "activation": "linear", "use_bias": true, "kernel_initializer": {"class_name": "GlorotUniform", "config": {"seed": null}}, "bias_initializer": {"class_name": "Zeros", "config": {}}, "kernel_regularizer": null, "bias_regularizer": null, "activity_regularizer": null, "kernel_constraint": null, "bias_constraint": null}, "name": "conv1d_36", "inbound_nodes": [[["lambda_11", 0, 0, {}]]]}, {"class_name": "Conv1D", "config": {"name": "conv1d_40", "trainable": true, "dtype": {"class_name": "Policy", "config": {"name": "mixed_float16"}}, "filters": 128, "kernel_size": [3], "strides": [1], "padding": "same", "data_format": "channels_last", "dilation_rate": [1], "activation": "linear", "use_bias": true, "kernel_initializer": {"class_name": "GlorotUniform", "config": {"seed": null}}, "bias_initializer": {"class_name": "Zeros", "config": {}}, "kernel_regularizer": null, "bias_regularizer": null, "activity_regularizer": null, "kernel_constraint": null, "bias_constraint": null}, "name": "conv1d_40", "inbound_nodes": [[["batch_normalization_39", 0, 0, {}]]]}, {"class_name": "Activation", "config": {"name": "activation_45", "trainable": true, "dtype": {"class_name": "Policy", "config": {"name": "mixed_float16"}}, "activation": {"class_name": "Mish", "config": {"name": "mish", "trainable": true, "dtype": {"class_name": "Policy", "config": {"name": "mixed_float16"}}, "activation": "Addons>mish"}}}, "name": "activation_45", "inbound_nodes": [[["conv1d_36", 0, 0, {}]]]}, {"class_name": "Activation", "config": {"name": "activation_49", "trainable": true, "dtype": {"class_name": "Policy", "config": {"name": "mixed_float16"}}, "activation": {"class_name": "Mish", "config": {"name": "mish", "trainable": true, "dtype": {"class_name": "Policy", "config": {"name": "mixed_float16"}}, "activation": "Addons>mish"}}}, "name": "activation_49", "inbound_nodes": [[["conv1d_40", 0, 0, {}]]]}, {"class_name": "Dropout", "config": {"name": "dropout_29", "trainable": true, "dtype": {"class_name": "Policy", "config": {"name": "mixed_float16"}}, "rate": 0.3, "noise_shape": null, "seed": null}, "name": "dropout_29", "inbound_nodes": [[["activation_45", 0, 0, {}]]]}, {"class_name": "Dropout", "config": {"name": "dropout_33", "trainable": true, "dtype": {"class_name": "Policy", "config": {"name": "mixed_float16"}}, "rate": 0.3, "noise_shape": null, "seed": null}, "name": "dropout_33", "inbound_nodes": [[["activation_49", 0, 0, {}]]]}, {"class_name": "BatchNormalization", "config": {"name": "batch_normalization_36", "trainable": true, "dtype": {"class_name": "Policy", "config": {"name": "mixed_float16"}}, "axis": [2], "momentum": 0.99, "epsilon": 0.001, "center": true, "scale": true, "beta_initializer": {"class_name": "Zeros", "config": {}}, "gamma_initializer": {"class_name": "Ones", "config": {}}, "moving_mean_initializer": {"class_name": "Zeros", "config": {}}, "moving_variance_initializer": {"class_name": "Ones", "config": {}}, "beta_regularizer": null, "gamma_regularizer": null, "beta_constraint": null, "gamma_constraint": null}, "name": "batch_normalization_36", "inbound_nodes": [[["dropout_29", 0, 0, {}]]]}, {"class_name": "BatchNormalization", "config": {"name": "batch_normalization_40", "trainable": true, "dtype": {"class_name": "Policy", "config": {"name": "mixed_float16"}}, "axis": [2], "momentum": 0.99, "epsilon": 0.001, "center": true, "scale": true, "beta_initializer": {"class_name": "Zeros", "config": {}}, "gamma_initializer": {"class_name": "Ones", "config": {}}, "moving_mean_initializer": {"class_name": "Zeros", "config": {}}, "moving_variance_initializer": {"class_name": "Ones", "config": {}}, "beta_regularizer": null, "gamma_regularizer": null, "beta_constraint": null, "gamma_constraint": null}, "name": "batch_normalization_40", "inbound_nodes": [[["dropout_33", 0, 0, {}]]]}, {"class_name": "Conv1D", "config": {"name": "conv1d_35", "trainable": true, "dtype": {"class_name": "Policy", "config": {"name": "mixed_float16"}}, "filters": 128, "kernel_size": [1], "strides": [1], "padding": "same", "data_format": "channels_last", "dilation_rate": [1], "activation": "linear", "use_bias": true, "kernel_initializer": {"class_name": "GlorotUniform", "config": {"seed": null}}, "bias_initializer": {"class_name": "Zeros", "config": {}}, "kernel_regularizer": null, "bias_regularizer": null, "activity_regularizer": null, "kernel_constraint": null, "bias_constraint": null}, "name": "conv1d_35", "inbound_nodes": [[["lambda_11", 0, 0, {}]]]}, {"class_name": "Conv1D", "config": {"name": "conv1d_37", "trainable": true, "dtype": {"class_name": "Policy", "config": {"name": "mixed_float16"}}, "filters": 128, "kernel_size": [3], "strides": [1], "padding": "same", "data_format": "channels_last", "dilation_rate": [1], "activation": "linear", "use_bias": true, "kernel_initializer": {"class_name": "GlorotUniform", "config": {"seed": null}}, "bias_initializer": {"class_name": "Zeros", "config": {}}, "kernel_regularizer": null, "bias_regularizer": null, "activity_regularizer": null, "kernel_constraint": null, "bias_constraint": null}, "name": "conv1d_37", "inbound_nodes": [[["batch_normalization_36", 0, 0, {}]]]}, {"class_name": "Conv1D", "config": {"name": "conv1d_41", "trainable": true, "dtype": {"class_name": "Policy", "config": {"name": "mixed_float16"}}, "filters": 128, "kernel_size": [3], "strides": [1], "padding": "same", "data_format": "channels_last", "dilation_rate": [1], "activation": "linear", "use_bias": true, "kernel_initializer": {"class_name": "GlorotUniform", "config": {"seed": null}}, "bias_initializer": {"class_name": "Zeros", "config": {}}, "kernel_regularizer": null, "bias_regularizer": null, "activity_regularizer": null, "kernel_constraint": null, "bias_constraint": null}, "name": "conv1d_41", "inbound_nodes": [[["batch_normalization_40", 0, 0, {}]]]}, {"class_name": "Activation", "config": {"name": "activation_44", "trainable": true, "dtype": {"class_name": "Policy", "config": {"name": "mixed_float16"}}, "activation": {"class_name": "Mish", "config": {"name": "mish", "trainable": true, "dtype": {"class_name": "Policy", "config": {"name": "mixed_float16"}}, "activation": "Addons>mish"}}}, "name": "activation_44", "inbound_nodes": [[["conv1d_35", 0, 0, {}]]]}, {"class_name": "Activation", "config": {"name": "activation_46", "trainable": true, "dtype": {"class_name": "Policy", "config": {"name": "mixed_float16"}}, "activation": {"class_name": "Mish", "config": {"name": "mish", "trainable": true, "dtype": {"class_name": "Policy", "config": {"name": "mixed_float16"}}, "activation": "Addons>mish"}}}, "name": "activation_46", "inbound_nodes": [[["conv1d_37", 0, 0, {}]]]}, {"class_name": "Activation", "config": {"name": "activation_50", "trainable": true, "dtype": {"class_name": "Policy", "config": {"name": "mixed_float16"}}, "activation": {"class_name": "Mish", "config": {"name": "mish", "trainable": true, "dtype": {"class_name": "Policy", "config": {"name": "mixed_float16"}}, "activation": "Addons>mish"}}}, "name": "activation_50", "inbound_nodes": [[["conv1d_41", 0, 0, {}]]]}, {"class_name": "Dropout", "config": {"name": "dropout_28", "trainable": true, "dtype": {"class_name": "Policy", "config": {"name": "mixed_float16"}}, "rate": 0.3, "noise_shape": null, "seed": null}, "name": "dropout_28", "inbound_nodes": [[["activation_44", 0, 0, {}]]]}, {"class_name": "Dropout", "config": {"name": "dropout_30", "trainable": true, "dtype": {"class_name": "Policy", "config": {"name": "mixed_float16"}}, "rate": 0.3, "noise_shape": null, "seed": null}, "name": "dropout_30", "inbound_nodes": [[["activation_46", 0, 0, {}]]]}, {"class_name": "Dropout", "config": {"name": "dropout_34", "trainable": true, "dtype": {"class_name": "Policy", "config": {"name": "mixed_float16"}}, "rate": 0.3, "noise_shape": null, "seed": null}, "name": "dropout_34", "inbound_nodes": [[["activation_50", 0, 0, {}]]]}, {"class_name": "BatchNormalization", "config": {"name": "batch_normalization_35", "trainable": true, "dtype": {"class_name": "Policy", "config": {"name": "mixed_float16"}}, "axis": [2], "momentum": 0.99, "epsilon": 0.001, "center": true, "scale": true, "beta_initializer": {"class_name": "Zeros", "config": {}}, "gamma_initializer": {"class_name": "Ones", "config": {}}, "moving_mean_initializer": {"class_name": "Zeros", "config": {}}, "moving_variance_initializer": {"class_name": "Ones", "config": {}}, "beta_regularizer": null, "gamma_regularizer": null, "beta_constraint": null, "gamma_constraint": null}, "name": "batch_normalization_35", "inbound_nodes": [[["dropout_28", 0, 0, {}]]]}, {"class_name": "BatchNormalization", "config": {"name": "batch_normalization_37", "trainable": true, "dtype": {"class_name": "Policy", "config": {"name": "mixed_float16"}}, "axis": [2], "momentum": 0.99, "epsilon": 0.001, "center": true, "scale": true, "beta_initializer": {"class_name": "Zeros", "config": {}}, "gamma_initializer": {"class_name": "Ones", "config": {}}, "moving_mean_initializer": {"class_name": "Zeros", "config": {}}, "moving_variance_initializer": {"class_name": "Ones", "config": {}}, "beta_regularizer": null, "gamma_regularizer": null, "beta_constraint": null, "gamma_constraint": null}, "name": "batch_normalization_37", "inbound_nodes": [[["dropout_30", 0, 0, {}]]]}, {"class_name": "BatchNormalization", "config": {"name": "batch_normalization_41", "trainable": true, "dtype": {"class_name": "Policy", "config": {"name": "mixed_float16"}}, "axis": [2], "momentum": 0.99, "epsilon": 0.001, "center": true, "scale": true, "beta_initializer": {"class_name": "Zeros", "config": {}}, "gamma_initializer": {"class_name": "Ones", "config": {}}, "moving_mean_initializer": {"class_name": "Zeros", "config": {}}, "moving_variance_initializer": {"class_name": "Ones", "config": {}}, "beta_regularizer": null, "gamma_regularizer": null, "beta_constraint": null, "gamma_constraint": null}, "name": "batch_normalization_41", "inbound_nodes": [[["dropout_34", 0, 0, {}]]]}, {"class_name": "Concatenate", "config": {"name": "concatenate_8", "trainable": true, "dtype": {"class_name": "Policy", "config": {"name": "mixed_float16"}}, "axis": -1}, "name": "concatenate_8", "inbound_nodes": [[["batch_normalization_35", 0, 0, {}], ["batch_normalization_37", 0, 0, {}], ["batch_normalization_41", 0, 0, {}]]]}, {"class_name": "BatchNormalization", "config": {"name": "batch_normalization_42", "trainable": true, "dtype": {"class_name": "Policy", "config": {"name": "mixed_float16"}}, "axis": [2], "momentum": 0.99, "epsilon": 0.001, "center": true, "scale": true, "beta_initializer": {"class_name": "Zeros", "config": {}}, "gamma_initializer": {"class_name": "Ones", "config": {}}, "moving_mean_initializer": {"class_name": "Zeros", "config": {}}, "moving_variance_initializer": {"class_name": "Ones", "config": {}}, "beta_regularizer": null, "gamma_regularizer": null, "beta_constraint": null, "gamma_constraint": null}, "name": "batch_normalization_42", "inbound_nodes": [[["concatenate_8", 0, 0, {}]]]}, {"class_name": "GlobalAveragePooling1D", "config": {"name": "global_average_pooling1d_4", "trainable": true, "dtype": {"class_name": "Policy", "config": {"name": "mixed_float16"}}, "data_format": "channels_last"}, "name": "global_average_pooling1d_4", "inbound_nodes": [[["batch_normalization_42", 0, 0, {}]]]}, {"class_name": "GlobalMaxPooling1D", "config": {"name": "global_max_pooling1d_4", "trainable": true, "dtype": {"class_name": "Policy", "config": {"name": "mixed_float16"}}, "data_format": "channels_last"}, "name": "global_max_pooling1d_4", "inbound_nodes": [[["batch_normalization_42", 0, 0, {}]]]}, {"class_name": "Reshape", "config": {"name": "reshape_8", "trainable": true, "dtype": {"class_name": "Policy", "config": {"name": "mixed_float16"}}, "target_shape": [1, 384]}, "name": "reshape_8", "inbound_nodes": [[["global_average_pooling1d_4", 0, 0, {}]]]}, {"class_name": "Reshape", "config": {"name": "reshape_9", "trainable": true, "dtype": {"class_name": "Policy", "config": {"name": "mixed_float16"}}, "target_shape": [1, 384]}, "name": "reshape_9", "inbound_nodes": [[["global_max_pooling1d_4", 0, 0, {}]]]}, {"class_name": "Dense", "config": {"name": "dense_8", "trainable": true, "dtype": {"class_name": "Policy", "config": {"name": "mixed_float16"}}, "units": 48, "activation": "linear", "use_bias": true, "kernel_initializer": {"class_name": "VarianceScaling", "config": {"scale": 2.0, "mode": "fan_in", "distribution": "truncated_normal", "seed": null}}, "bias_initializer": {"class_name": "Zeros", "config": {}}, "kernel_regularizer": null, "bias_regularizer": null, "activity_regularizer": null, "kernel_constraint": null, "bias_constraint": null}, "name": "dense_8", "inbound_nodes": [[["reshape_8", 0, 0, {}]], [["reshape_9", 0, 0, {}]]]}, {"class_name": "Activation", "config": {"name": "activation_51", "trainable": true, "dtype": {"class_name": "Policy", "config": {"name": "mixed_float16"}}, "activation": "relu"}, "name": "activation_51", "inbound_nodes": [[["dense_8", 0, 0, {}]], [["dense_8", 1, 0, {}]]]}, {"class_name": "Dense", "config": {"name": "dense_9", "trainable": true, "dtype": {"class_name": "Policy", "config": {"name": "mixed_float16"}}, "units": 384, "activation": "linear", "use_bias": true, "kernel_initializer": {"class_name": "VarianceScaling", "config": {"scale": 2.0, "mode": "fan_in", "distribution": "truncated_normal", "seed": null}}, "bias_initializer": {"class_name": "Zeros", "config": {}}, "kernel_regularizer": null, "bias_regularizer": null, "activity_regularizer": null, "kernel_constraint": null, "bias_constraint": null}, "name": "dense_9", "inbound_nodes": [[["activation_51", 0, 0, {}]], [["activation_51", 1, 0, {}]]]}, {"class_name": "Activation", "config": {"name": "activation_52", "trainable": true, "dtype": {"class_name": "Policy", "config": {"name": "mixed_float16"}}, "activation": "sigmoid"}, "name": "activation_52", "inbound_nodes": [[["dense_9", 0, 0, {}]], [["dense_9", 1, 0, {}]]]}, {"class_name": "Add", "config": {"name": "add_4", "trainable": true, "dtype": {"class_name": "Policy", "config": {"name": "mixed_float16"}}}, "name": "add_4", "inbound_nodes": [[["activation_52", 0, 0, {}], ["activation_52", 1, 0, {}]]]}, {"class_name": "Activation", "config": {"name": "activation_53", "trainable": true, "dtype": {"class_name": "Policy", "config": {"name": "mixed_float16"}}, "activation": "sigmoid"}, "name": "activation_53", "inbound_nodes": [[["add_4", 0, 0, {}]]]}, {"class_name": "Multiply", "config": {"name": "multiply_8", "trainable": true, "dtype": {"class_name": "Policy", "config": {"name": "mixed_float16"}}}, "name": "multiply_8", "inbound_nodes": [[["batch_normalization_42", 0, 0, {}], ["activation_53", 0, 0, {}]]]}, {"class_name": "Lambda", "config": {"name": "lambda_12", "trainable": true, "dtype": {"class_name": "Policy", "config": {"name": "mixed_float16"}}, "function": ["4wEAAAAAAAAAAQAAAAUAAABTAAAAcxAAAAB0AGoBfABkAWQCZAONA1MAKQRO6f////9UKQLaBGF4\naXPaCGtlZXBkaW1zKQLaAUvaBG1lYW4pAdoBeKkAcgcAAAD6TS4vY2JhbV9pbmNlcHRpb25fdGZp\nb19uZXdfZG91YmxlX2F0dGVudGlvbl9yYWRhbV9sYXN0X2xheWVyX2F0dGVudGlvbl9taXNoLnB5\n2gg8bGFtYmRhPmMBAADzAAAAAA==\n", null, null], "function_type": "lambda", "module": "__main__", "output_shape": null, "output_shape_type": "raw", "output_shape_module": null, "arguments": {}}, "name": "lambda_12", "inbound_nodes": [[["multiply_8", 0, 0, {}]]]}, {"class_name": "Lambda", "config": {"name": "lambda_13", "trainable": true, "dtype": {"class_name": "Policy", "config": {"name": "mixed_float16"}}, "function": ["4wEAAAAAAAAAAQAAAAUAAABTAAAAcxAAAAB0AGoBfABkAWQCZAONA1MAKQRO6f////9UKQLaBGF4\naXPaCGtlZXBkaW1zKQLaAUvaA21heCkB2gF4qQByBwAAAPpNLi9jYmFtX2luY2VwdGlvbl90Zmlv\nX25ld19kb3VibGVfYXR0ZW50aW9uX3JhZGFtX2xhc3RfbGF5ZXJfYXR0ZW50aW9uX21pc2gucHna\nCDxsYW1iZGE+ZgEAAPMAAAAA\n", null, null], "function_type": "lambda", "module": "__main__", "output_shape": null, "output_shape_type": "raw", "output_shape_module": null, "arguments": {}}, "name": "lambda_13", "inbound_nodes": [[["multiply_8", 0, 0, {}]]]}, {"class_name": "Concatenate", "config": {"name": "concatenate_9", "trainable": true, "dtype": {"class_name": "Policy", "config": {"name": "mixed_float16"}}, "axis": -1}, "name": "concatenate_9", "inbound_nodes": [[["lambda_12", 0, 0, {}], ["lambda_13", 0, 0, {}]]]}, {"class_name": "Conv1D", "config": {"name": "conv1d_42", "trainable": true, "dtype": {"class_name": "Policy", "config": {"name": "mixed_float16"}}, "filters": 1, "kernel_size": [7], "strides": [1], "padding": "same", "data_format": "channels_last", "dilation_rate": [1], "activation": "linear", "use_bias": false, "kernel_initializer": {"class_name": "GlorotUniform", "config": {"seed": null}}, "bias_initializer": {"class_name": "Zeros", "config": {}}, "kernel_regularizer": null, "bias_regularizer": null, "activity_regularizer": null, "kernel_constraint": null, "bias_constraint": null}, "name": "conv1d_42", "inbound_nodes": [[["concatenate_9", 0, 0, {}]]]}, {"class_name": "Activation", "config": {"name": "activation_54", "trainable": true, "dtype": {"class_name": "Policy", "config": {"name": "mixed_float16"}}, "activation": "sigmoid"}, "name": "activation_54", "inbound_nodes": [[["conv1d_42", 0, 0, {}]]]}, {"class_name": "Multiply", "config": {"name": "multiply_9", "trainable": true, "dtype": {"class_name": "Policy", "config": {"name": "mixed_float16"}}}, "name": "multiply_9", "inbound_nodes": [[["multiply_8", 0, 0, {}], ["activation_54", 0, 0, {}]]]}, {"class_name": "Lambda", "config": {"name": "lambda_14", "trainable": true, "dtype": {"class_name": "Policy", "config": {"name": "mixed_float16"}}, "function": ["4wIAAAAAAAAAAgAAAAMAAABTAAAAcxQAAAB8AGQBGQB8AGQCGQB8ARQAFwBTACkDTukAAAAA6QEA\nAACpACkC2gZpbnB1dHPaBXNjYWxlcgMAAAByAwAAAPpNLi9jYmFtX2luY2VwdGlvbl90ZmlvX25l\nd19kb3VibGVfYXR0ZW50aW9uX3JhZGFtX2xhc3RfbGF5ZXJfYXR0ZW50aW9uX21pc2gucHnaCDxs\nYW1iZGE+8gEAAPMAAAAA\n", null, null], "function_type": "lambda", "module": "__main__", "output_shape": [61, 384], "output_shape_type": "raw", "output_shape_module": null, "arguments": {"scale": 0.2}}, "name": "lambda_14", "inbound_nodes": [[["lambda_11", 0, 0, {}], ["multiply_9", 0, 0, {}]]]}, {"class_name": "Conv1D", "config": {"name": "conv1d_12", "trainable": true, "dtype": {"class_name": "Policy", "config": {"name": "mixed_float16"}}, "filters": 128, "kernel_size": [1], "strides": [1], "padding": "same", "data_format": "channels_last", "dilation_rate": [1], "activation": "linear", "use_bias": true, "kernel_initializer": {"class_name": "GlorotUniform", "config": {"seed": null}}, "bias_initializer": {"class_name": "Zeros", "config": {}}, "kernel_regularizer": null, "bias_regularizer": null, "activity_regularizer": null, "kernel_constraint": null, "bias_constraint": null}, "name": "conv1d_12", "inbound_nodes": [[["input_1", 0, 0, {}]]]}, {"class_name": "Conv1D", "config": {"name": "conv1d_46", "trainable": true, "dtype": {"class_name": "Policy", "config": {"name": "mixed_float16"}}, "filters": 128, "kernel_size": [1], "strides": [1], "padding": "same", "data_format": "channels_last", "dilation_rate": [1], "activation": "linear", "use_bias": true, "kernel_initializer": {"class_name": "GlorotUniform", "config": {"seed": null}}, "bias_initializer": {"class_name": "Zeros", "config": {}}, "kernel_regularizer": null, "bias_regularizer": null, "activity_regularizer": null, "kernel_constraint": null, "bias_constraint": null}, "name": "conv1d_46", "inbound_nodes": [[["lambda_14", 0, 0, {}]]]}, {"class_name": "Activation", "config": {"name": "activation_14", "trainable": true, "dtype": {"class_name": "Policy", "config": {"name": "mixed_float16"}}, "activation": {"class_name": "Mish", "config": {"name": "mish", "trainable": true, "dtype": {"class_name": "Policy", "config": {"name": "mixed_float16"}}, "activation": "Addons>mish"}}}, "name": "activation_14", "inbound_nodes": [[["conv1d_12", 0, 0, {}]]]}, {"class_name": "Activation", "config": {"name": "activation_58", "trainable": true, "dtype": {"class_name": "Policy", "config": {"name": "mixed_float16"}}, "activation": {"class_name": "Mish", "config": {"name": "mish", "trainable": true, "dtype": {"class_name": "Policy", "config": {"name": "mixed_float16"}}, "activation": "Addons>mish"}}}, "name": "activation_58", "inbound_nodes": [[["conv1d_46", 0, 0, {}]]]}, {"class_name": "Dropout", "config": {"name": "dropout_10", "trainable": true, "dtype": {"class_name": "Policy", "config": {"name": "mixed_float16"}}, "rate": 0.3, "noise_shape": null, "seed": null}, "name": "dropout_10", "inbound_nodes": [[["activation_14", 0, 0, {}]]]}, {"class_name": "Dropout", "config": {"name": "dropout_38", "trainable": true, "dtype": {"class_name": "Policy", "config": {"name": "mixed_float16"}}, "rate": 0.3, "noise_shape": null, "seed": null}, "name": "dropout_38", "inbound_nodes": [[["activation_58", 0, 0, {}]]]}, {"class_name": "BatchNormalization", "config": {"name": "batch_normalization_12", "trainable": true, "dtype": {"class_name": "Policy", "config": {"name": "mixed_float16"}}, "axis": [2], "momentum": 0.99, "epsilon": 0.001, "center": true, "scale": true, "beta_initializer": {"class_name": "Zeros", "config": {}}, "gamma_initializer": {"class_name": "Ones", "config": {}}, "moving_mean_initializer": {"class_name": "Zeros", "config": {}}, "moving_variance_initializer": {"class_name": "Ones", "config": {}}, "beta_regularizer": null, "gamma_regularizer": null, "beta_constraint": null, "gamma_constraint": null}, "name": "batch_normalization_12", "inbound_nodes": [[["dropout_10", 0, 0, {}]]]}, {"class_name": "BatchNormalization", "config": {"name": "batch_normalization_46", "trainable": true, "dtype": {"class_name": "Policy", "config": {"name": "mixed_float16"}}, "axis": [2], "momentum": 0.99, "epsilon": 0.001, "center": true, "scale": true, "beta_initializer": {"class_name": "Zeros", "config": {}}, "gamma_initializer": {"class_name": "Ones", "config": {}}, "moving_mean_initializer": {"class_name": "Zeros", "config": {}}, "moving_variance_initializer": {"class_name": "Ones", "config": {}}, "beta_regularizer": null, "gamma_regularizer": null, "beta_constraint": null, "gamma_constraint": null}, "name": "batch_normalization_46", "inbound_nodes": [[["dropout_38", 0, 0, {}]]]}, {"class_name": "Conv1D", "config": {"name": "conv1d_13", "trainable": true, "dtype": {"class_name": "Policy", "config": {"name": "mixed_float16"}}, "filters": 128, "kernel_size": [3], "strides": [1], "padding": "same", "data_format": "channels_last", "dilation_rate": [1], "activation": "linear", "use_bias": true, "kernel_initializer": {"class_name": "GlorotUniform", "config": {"seed": null}}, "bias_initializer": {"class_name": "Zeros", "config": {}}, "kernel_regularizer": null, "bias_regularizer": null, "activity_regularizer": null, "kernel_constraint": null, "bias_constraint": null}, "name": "conv1d_13", "inbound_nodes": [[["batch_normalization_12", 0, 0, {}]]]}, {"class_name": "Conv1D", "config": {"name": "conv1d_47", "trainable": true, "dtype": {"class_name": "Policy", "config": {"name": "mixed_float16"}}, "filters": 128, "kernel_size": [3], "strides": [1], "padding": "same", "data_format": "channels_last", "dilation_rate": [1], "activation": "linear", "use_bias": true, "kernel_initializer": {"class_name": "GlorotUniform", "config": {"seed": null}}, "bias_initializer": {"class_name": "Zeros", "config": {}}, "kernel_regularizer": null, "bias_regularizer": null, "activity_regularizer": null, "kernel_constraint": null, "bias_constraint": null}, "name": "conv1d_47", "inbound_nodes": [[["batch_normalization_46", 0, 0, {}]]]}, {"class_name": "Activation", "config": {"name": "activation_15", "trainable": true, "dtype": {"class_name": "Policy", "config": {"name": "mixed_float16"}}, "activation": {"class_name": "Mish", "config": {"name": "mish", "trainable": true, "dtype": {"class_name": "Policy", "config": {"name": "mixed_float16"}}, "activation": "Addons>mish"}}}, "name": "activation_15", "inbound_nodes": [[["conv1d_13", 0, 0, {}]]]}, {"class_name": "Activation", "config": {"name": "activation_59", "trainable": true, "dtype": {"class_name": "Policy", "config": {"name": "mixed_float16"}}, "activation": {"class_name": "Mish", "config": {"name": "mish", "trainable": true, "dtype": {"class_name": "Policy", "config": {"name": "mixed_float16"}}, "activation": "Addons>mish"}}}, "name": "activation_59", "inbound_nodes": [[["conv1d_47", 0, 0, {}]]]}, {"class_name": "Dropout", "config": {"name": "dropout_11", "trainable": true, "dtype": {"class_name": "Policy", "config": {"name": "mixed_float16"}}, "rate": 0.3, "noise_shape": null, "seed": null}, "name": "dropout_11", "inbound_nodes": [[["activation_15", 0, 0, {}]]]}, {"class_name": "Dropout", "config": {"name": "dropout_39", "trainable": true, "dtype": {"class_name": "Policy", "config": {"name": "mixed_float16"}}, "rate": 0.3, "noise_shape": null, "seed": null}, "name": "dropout_39", "inbound_nodes": [[["activation_59", 0, 0, {}]]]}, {"class_name": "BatchNormalization", "config": {"name": "batch_normalization_13", "trainable": true, "dtype": {"class_name": "Policy", "config": {"name": "mixed_float16"}}, "axis": [2], "momentum": 0.99, "epsilon": 0.001, "center": true, "scale": true, "beta_initializer": {"class_name": "Zeros", "config": {}}, "gamma_initializer": {"class_name": "Ones", "config": {}}, "moving_mean_initializer": {"class_name": "Zeros", "config": {}}, "moving_variance_initializer": {"class_name": "Ones", "config": {}}, "beta_regularizer": null, "gamma_regularizer": null, "beta_constraint": null, "gamma_constraint": null}, "name": "batch_normalization_13", "inbound_nodes": [[["dropout_11", 0, 0, {}]]]}, {"class_name": "BatchNormalization", "config": {"name": "batch_normalization_47", "trainable": true, "dtype": {"class_name": "Policy", "config": {"name": "mixed_float16"}}, "axis": [2], "momentum": 0.99, "epsilon": 0.001, "center": true, "scale": true, "beta_initializer": {"class_name": "Zeros", "config": {}}, "gamma_initializer": {"class_name": "Ones", "config": {}}, "moving_mean_initializer": {"class_name": "Zeros", "config": {}}, "moving_variance_initializer": {"class_name": "Ones", "config": {}}, "beta_regularizer": null, "gamma_regularizer": null, "beta_constraint": null, "gamma_constraint": null}, "name": "batch_normalization_47", "inbound_nodes": [[["dropout_39", 0, 0, {}]]]}, {"class_name": "Conv1D", "config": {"name": "conv1d_10", "trainable": true, "dtype": {"class_name": "Policy", "config": {"name": "mixed_float16"}}, "filters": 128, "kernel_size": [1], "strides": [1], "padding": "same", "data_format": "channels_last", "dilation_rate": [1], "activation": "linear", "use_bias": true, "kernel_initializer": {"class_name": "GlorotUniform", "config": {"seed": null}}, "bias_initializer": {"class_name": "Zeros", "config": {}}, "kernel_regularizer": null, "bias_regularizer": null, "activity_regularizer": null, "kernel_constraint": null, "bias_constraint": null}, "name": "conv1d_10", "inbound_nodes": [[["input_1", 0, 0, {}]]]}, {"class_name": "Conv1D", "config": {"name": "conv1d_14", "trainable": true, "dtype": {"class_name": "Policy", "config": {"name": "mixed_float16"}}, "filters": 128, "kernel_size": [3], "strides": [1], "padding": "same", "data_format": "channels_last", "dilation_rate": [1], "activation": "linear", "use_bias": true, "kernel_initializer": {"class_name": "GlorotUniform", "config": {"seed": null}}, "bias_initializer": {"class_name": "Zeros", "config": {}}, "kernel_regularizer": null, "bias_regularizer": null, "activity_regularizer": null, "kernel_constraint": null, "bias_constraint": null}, "name": "conv1d_14", "inbound_nodes": [[["batch_normalization_13", 0, 0, {}]]]}, {"class_name": "Conv1D", "config": {"name": "conv1d_44", "trainable": true, "dtype": {"class_name": "Policy", "config": {"name": "mixed_float16"}}, "filters": 128, "kernel_size": [1], "strides": [1], "padding": "same", "data_format": "channels_last", "dilation_rate": [1], "activation": "linear", "use_bias": true, "kernel_initializer": {"class_name": "GlorotUniform", "config": {"seed": null}}, "bias_initializer": {"class_name": "Zeros", "config": {}}, "kernel_regularizer": null, "bias_regularizer": null, "activity_regularizer": null, "kernel_constraint": null, "bias_constraint": null}, "name": "conv1d_44", "inbound_nodes": [[["lambda_14", 0, 0, {}]]]}, {"class_name": "Conv1D", "config": {"name": "conv1d_48", "trainable": true, "dtype": {"class_name": "Policy", "config": {"name": "mixed_float16"}}, "filters": 128, "kernel_size": [3], "strides": [1], "padding": "same", "data_format": "channels_last", "dilation_rate": [1], "activation": "linear", "use_bias": true, "kernel_initializer": {"class_name": "GlorotUniform", "config": {"seed": null}}, "bias_initializer": {"class_name": "Zeros", "config": {}}, "kernel_regularizer": null, "bias_regularizer": null, "activity_regularizer": null, "kernel_constraint": null, "bias_constraint": null}, "name": "conv1d_48", "inbound_nodes": [[["batch_normalization_47", 0, 0, {}]]]}, {"class_name": "Activation", "config": {"name": "activation_12", "trainable": true, "dtype": {"class_name": "Policy", "config": {"name": "mixed_float16"}}, "activation": {"class_name": "Mish", "config": {"name": "mish", "trainable": true, "dtype": {"class_name": "Policy", "config": {"name": "mixed_float16"}}, "activation": "Addons>mish"}}}, "name": "activation_12", "inbound_nodes": [[["conv1d_10", 0, 0, {}]]]}, {"class_name": "Activation", "config": {"name": "activation_16", "trainable": true, "dtype": {"class_name": "Policy", "config": {"name": "mixed_float16"}}, "activation": {"class_name": "Mish", "config": {"name": "mish", "trainable": true, "dtype": {"class_name": "Policy", "config": {"name": "mixed_float16"}}, "activation": "Addons>mish"}}}, "name": "activation_16", "inbound_nodes": [[["conv1d_14", 0, 0, {}]]]}, {"class_name": "Activation", "config": {"name": "activation_56", "trainable": true, "dtype": {"class_name": "Policy", "config": {"name": "mixed_float16"}}, "activation": {"class_name": "Mish", "config": {"name": "mish", "trainable": true, "dtype": {"class_name": "Policy", "config": {"name": "mixed_float16"}}, "activation": "Addons>mish"}}}, "name": "activation_56", "inbound_nodes": [[["conv1d_44", 0, 0, {}]]]}, {"class_name": "Activation", "config": {"name": "activation_60", "trainable": true, "dtype": {"class_name": "Policy", "config": {"name": "mixed_float16"}}, "activation": {"class_name": "Mish", "config": {"name": "mish", "trainable": true, "dtype": {"class_name": "Policy", "config": {"name": "mixed_float16"}}, "activation": "Addons>mish"}}}, "name": "activation_60", "inbound_nodes": [[["conv1d_48", 0, 0, {}]]]}, {"class_name": "Dropout", "config": {"name": "dropout_8", "trainable": true, "dtype": {"class_name": "Policy", "config": {"name": "mixed_float16"}}, "rate": 0.3, "noise_shape": null, "seed": null}, "name": "dropout_8", "inbound_nodes": [[["activation_12", 0, 0, {}]]]}, {"class_name": "Dropout", "config": {"name": "dropout_12", "trainable": true, "dtype": {"class_name": "Policy", "config": {"name": "mixed_float16"}}, "rate": 0.3, "noise_shape": null, "seed": null}, "name": "dropout_12", "inbound_nodes": [[["activation_16", 0, 0, {}]]]}, {"class_name": "Dropout", "config": {"name": "dropout_36", "trainable": true, "dtype": {"class_name": "Policy", "config": {"name": "mixed_float16"}}, "rate": 0.3, "noise_shape": null, "seed": null}, "name": "dropout_36", "inbound_nodes": [[["activation_56", 0, 0, {}]]]}, {"class_name": "Dropout", "config": {"name": "dropout_40", "trainable": true, "dtype": {"class_name": "Policy", "config": {"name": "mixed_float16"}}, "rate": 0.3, "noise_shape": null, "seed": null}, "name": "dropout_40", "inbound_nodes": [[["activation_60", 0, 0, {}]]]}, {"class_name": "BatchNormalization", "config": {"name": "batch_normalization_10", "trainable": true, "dtype": {"class_name": "Policy", "config": {"name": "mixed_float16"}}, "axis": [2], "momentum": 0.99, "epsilon": 0.001, "center": true, "scale": true, "beta_initializer": {"class_name": "Zeros", "config": {}}, "gamma_initializer": {"class_name": "Ones", "config": {}}, "moving_mean_initializer": {"class_name": "Zeros", "config": {}}, "moving_variance_initializer": {"class_name": "Ones", "config": {}}, "beta_regularizer": null, "gamma_regularizer": null, "beta_constraint": null, "gamma_constraint": null}, "name": "batch_normalization_10", "inbound_nodes": [[["dropout_8", 0, 0, {}]]]}, {"class_name": "BatchNormalization", "config": {"name": "batch_normalization_14", "trainable": true, "dtype": {"class_name": "Policy", "config": {"name": "mixed_float16"}}, "axis": [2], "momentum": 0.99, "epsilon": 0.001, "center": true, "scale": true, "beta_initializer": {"class_name": "Zeros", "config": {}}, "gamma_initializer": {"class_name": "Ones", "config": {}}, "moving_mean_initializer": {"class_name": "Zeros", "config": {}}, "moving_variance_initializer": {"class_name": "Ones", "config": {}}, "beta_regularizer": null, "gamma_regularizer": null, "beta_constraint": null, "gamma_constraint": null}, "name": "batch_normalization_14", "inbound_nodes": [[["dropout_12", 0, 0, {}]]]}, {"class_name": "BatchNormalization", "config": {"name": "batch_normalization_44", "trainable": true, "dtype": {"class_name": "Policy", "config": {"name": "mixed_float16"}}, "axis": [2], "momentum": 0.99, "epsilon": 0.001, "center": true, "scale": true, "beta_initializer": {"class_name": "Zeros", "config": {}}, "gamma_initializer": {"class_name": "Ones", "config": {}}, "moving_mean_initializer": {"class_name": "Zeros", "config": {}}, "moving_variance_initializer": {"class_name": "Ones", "config": {}}, "beta_regularizer": null, "gamma_regularizer": null, "beta_constraint": null, "gamma_constraint": null}, "name": "batch_normalization_44", "inbound_nodes": [[["dropout_36", 0, 0, {}]]]}, {"class_name": "BatchNormalization", "config": {"name": "batch_normalization_48", "trainable": true, "dtype": {"class_name": "Policy", "config": {"name": "mixed_float16"}}, "axis": [2], "momentum": 0.99, "epsilon": 0.001, "center": true, "scale": true, "beta_initializer": {"class_name": "Zeros", "config": {}}, "gamma_initializer": {"class_name": "Ones", "config": {}}, "moving_mean_initializer": {"class_name": "Zeros", "config": {}}, "moving_variance_initializer": {"class_name": "Ones", "config": {}}, "beta_regularizer": null, "gamma_regularizer": null, "beta_constraint": null, "gamma_constraint": null}, "name": "batch_normalization_48", "inbound_nodes": [[["dropout_40", 0, 0, {}]]]}, {"class_name": "Conv1D", "config": {"name": "conv1d_9", "trainable": true, "dtype": {"class_name": "Policy", "config": {"name": "mixed_float16"}}, "filters": 128, "kernel_size": [1], "strides": [1], "padding": "same", "data_format": "channels_last", "dilation_rate": [1], "activation": "linear", "use_bias": true, "kernel_initializer": {"class_name": "GlorotUniform", "config": {"seed": null}}, "bias_initializer": {"class_name": "Zeros", "config": {}}, "kernel_regularizer": null, "bias_regularizer": null, "activity_regularizer": null, "kernel_constraint": null, "bias_constraint": null}, "name": "conv1d_9", "inbound_nodes": [[["input_1", 0, 0, {}]]]}, {"class_name": "Conv1D", "config": {"name": "conv1d_11", "trainable": true, "dtype": {"class_name": "Policy", "config": {"name": "mixed_float16"}}, "filters": 128, "kernel_size": [3], "strides": [1], "padding": "same", "data_format": "channels_last", "dilation_rate": [1], "activation": "linear", "use_bias": true, "kernel_initializer": {"class_name": "GlorotUniform", "config": {"seed": null}}, "bias_initializer": {"class_name": "Zeros", "config": {}}, "kernel_regularizer": null, "bias_regularizer": null, "activity_regularizer": null, "kernel_constraint": null, "bias_constraint": null}, "name": "conv1d_11", "inbound_nodes": [[["batch_normalization_10", 0, 0, {}]]]}, {"class_name": "Conv1D", "config": {"name": "conv1d_15", "trainable": true, "dtype": {"class_name": "Policy", "config": {"name": "mixed_float16"}}, "filters": 128, "kernel_size": [3], "strides": [1], "padding": "same", "data_format": "channels_last", "dilation_rate": [1], "activation": "linear", "use_bias": true, "kernel_initializer": {"class_name": "GlorotUniform", "config": {"seed": null}}, "bias_initializer": {"class_name": "Zeros", "config": {}}, "kernel_regularizer": null, "bias_regularizer": null, "activity_regularizer": null, "kernel_constraint": null, "bias_constraint": null}, "name": "conv1d_15", "inbound_nodes": [[["batch_normalization_14", 0, 0, {}]]]}, {"class_name": "Conv1D", "config": {"name": "conv1d_43", "trainable": true, "dtype": {"class_name": "Policy", "config": {"name": "mixed_float16"}}, "filters": 128, "kernel_size": [1], "strides": [1], "padding": "same", "data_format": "channels_last", "dilation_rate": [1], "activation": "linear", "use_bias": true, "kernel_initializer": {"class_name": "GlorotUniform", "config": {"seed": null}}, "bias_initializer": {"class_name": "Zeros", "config": {}}, "kernel_regularizer": null, "bias_regularizer": null, "activity_regularizer": null, "kernel_constraint": null, "bias_constraint": null}, "name": "conv1d_43", "inbound_nodes": [[["lambda_14", 0, 0, {}]]]}, {"class_name": "Conv1D", "config": {"name": "conv1d_45", "trainable": true, "dtype": {"class_name": "Policy", "config": {"name": "mixed_float16"}}, "filters": 128, "kernel_size": [3], "strides": [1], "padding": "same", "data_format": "channels_last", "dilation_rate": [1], "activation": "linear", "use_bias": true, "kernel_initializer": {"class_name": "GlorotUniform", "config": {"seed": null}}, "bias_initializer": {"class_name": "Zeros", "config": {}}, "kernel_regularizer": null, "bias_regularizer": null, "activity_regularizer": null, "kernel_constraint": null, "bias_constraint": null}, "name": "conv1d_45", "inbound_nodes": [[["batch_normalization_44", 0, 0, {}]]]}, {"class_name": "Conv1D", "config": {"name": "conv1d_49", "trainable": true, "dtype": {"class_name": "Policy", "config": {"name": "mixed_float16"}}, "filters": 128, "kernel_size": [3], "strides": [1], "padding": "same", "data_format": "channels_last", "dilation_rate": [1], "activation": "linear", "use_bias": true, "kernel_initializer": {"class_name": "GlorotUniform", "config": {"seed": null}}, "bias_initializer": {"class_name": "Zeros", "config": {}}, "kernel_regularizer": null, "bias_regularizer": null, "activity_regularizer": null, "kernel_constraint": null, "bias_constraint": null}, "name": "conv1d_49", "inbound_nodes": [[["batch_normalization_48", 0, 0, {}]]]}, {"class_name": "Activation", "config": {"name": "activation_11", "trainable": true, "dtype": {"class_name": "Policy", "config": {"name": "mixed_float16"}}, "activation": {"class_name": "Mish", "config": {"name": "mish", "trainable": true, "dtype": {"class_name": "Policy", "config": {"name": "mixed_float16"}}, "activation": "Addons>mish"}}}, "name": "activation_11", "inbound_nodes": [[["conv1d_9", 0, 0, {}]]]}, {"class_name": "Activation", "config": {"name": "activation_13", "trainable": true, "dtype": {"class_name": "Policy", "config": {"name": "mixed_float16"}}, "activation": {"class_name": "Mish", "config": {"name": "mish", "trainable": true, "dtype": {"class_name": "Policy", "config": {"name": "mixed_float16"}}, "activation": "Addons>mish"}}}, "name": "activation_13", "inbound_nodes": [[["conv1d_11", 0, 0, {}]]]}, {"class_name": "Activation", "config": {"name": "activation_17", "trainable": true, "dtype": {"class_name": "Policy", "config": {"name": "mixed_float16"}}, "activation": {"class_name": "Mish", "config": {"name": "mish", "trainable": true, "dtype": {"class_name": "Policy", "config": {"name": "mixed_float16"}}, "activation": "Addons>mish"}}}, "name": "activation_17", "inbound_nodes": [[["conv1d_15", 0, 0, {}]]]}, {"class_name": "Activation", "config": {"name": "activation_55", "trainable": true, "dtype": {"class_name": "Policy", "config": {"name": "mixed_float16"}}, "activation": {"class_name": "Mish", "config": {"name": "mish", "trainable": true, "dtype": {"class_name": "Policy", "config": {"name": "mixed_float16"}}, "activation": "Addons>mish"}}}, "name": "activation_55", "inbound_nodes": [[["conv1d_43", 0, 0, {}]]]}, {"class_name": "Activation", "config": {"name": "activation_57", "trainable": true, "dtype": {"class_name": "Policy", "config": {"name": "mixed_float16"}}, "activation": {"class_name": "Mish", "config": {"name": "mish", "trainable": true, "dtype": {"class_name": "Policy", "config": {"name": "mixed_float16"}}, "activation": "Addons>mish"}}}, "name": "activation_57", "inbound_nodes": [[["conv1d_45", 0, 0, {}]]]}, {"class_name": "Activation", "config": {"name": "activation_61", "trainable": true, "dtype": {"class_name": "Policy", "config": {"name": "mixed_float16"}}, "activation": {"class_name": "Mish", "config": {"name": "mish", "trainable": true, "dtype": {"class_name": "Policy", "config": {"name": "mixed_float16"}}, "activation": "Addons>mish"}}}, "name": "activation_61", "inbound_nodes": [[["conv1d_49", 0, 0, {}]]]}, {"class_name": "Dropout", "config": {"name": "dropout_7", "trainable": true, "dtype": {"class_name": "Policy", "config": {"name": "mixed_float16"}}, "rate": 0.3, "noise_shape": null, "seed": null}, "name": "dropout_7", "inbound_nodes": [[["activation_11", 0, 0, {}]]]}, {"class_name": "Dropout", "config": {"name": "dropout_9", "trainable": true, "dtype": {"class_name": "Policy", "config": {"name": "mixed_float16"}}, "rate": 0.3, "noise_shape": null, "seed": null}, "name": "dropout_9", "inbound_nodes": [[["activation_13", 0, 0, {}]]]}, {"class_name": "Dropout", "config": {"name": "dropout_13", "trainable": true, "dtype": {"class_name": "Policy", "config": {"name": "mixed_float16"}}, "rate": 0.3, "noise_shape": null, "seed": null}, "name": "dropout_13", "inbound_nodes": [[["activation_17", 0, 0, {}]]]}, {"class_name": "Dropout", "config": {"name": "dropout_35", "trainable": true, "dtype": {"class_name": "Policy", "config": {"name": "mixed_float16"}}, "rate": 0.3, "noise_shape": null, "seed": null}, "name": "dropout_35", "inbound_nodes": [[["activation_55", 0, 0, {}]]]}, {"class_name": "Dropout", "config": {"name": "dropout_37", "trainable": true, "dtype": {"class_name": "Policy", "config": {"name": "mixed_float16"}}, "rate": 0.3, "noise_shape": null, "seed": null}, "name": "dropout_37", "inbound_nodes": [[["activation_57", 0, 0, {}]]]}, {"class_name": "Dropout", "config": {"name": "dropout_41", "trainable": true, "dtype": {"class_name": "Policy", "config": {"name": "mixed_float16"}}, "rate": 0.3, "noise_shape": null, "seed": null}, "name": "dropout_41", "inbound_nodes": [[["activation_61", 0, 0, {}]]]}, {"class_name": "BatchNormalization", "config": {"name": "batch_normalization_9", "trainable": true, "dtype": {"class_name": "Policy", "config": {"name": "mixed_float16"}}, "axis": [2], "momentum": 0.99, "epsilon": 0.001, "center": true, "scale": true, "beta_initializer": {"class_name": "Zeros", "config": {}}, "gamma_initializer": {"class_name": "Ones", "config": {}}, "moving_mean_initializer": {"class_name": "Zeros", "config": {}}, "moving_variance_initializer": {"class_name": "Ones", "config": {}}, "beta_regularizer": null, "gamma_regularizer": null, "beta_constraint": null, "gamma_constraint": null}, "name": "batch_normalization_9", "inbound_nodes": [[["dropout_7", 0, 0, {}]]]}, {"class_name": "BatchNormalization", "config": {"name": "batch_normalization_11", "trainable": true, "dtype": {"class_name": "Policy", "config": {"name": "mixed_float16"}}, "axis": [2], "momentum": 0.99, "epsilon": 0.001, "center": true, "scale": true, "beta_initializer": {"class_name": "Zeros", "config": {}}, "gamma_initializer": {"class_name": "Ones", "config": {}}, "moving_mean_initializer": {"class_name": "Zeros", "config": {}}, "moving_variance_initializer": {"class_name": "Ones", "config": {}}, "beta_regularizer": null, "gamma_regularizer": null, "beta_constraint": null, "gamma_constraint": null}, "name": "batch_normalization_11", "inbound_nodes": [[["dropout_9", 0, 0, {}]]]}, {"class_name": "BatchNormalization", "config": {"name": "batch_normalization_15", "trainable": true, "dtype": {"class_name": "Policy", "config": {"name": "mixed_float16"}}, "axis": [2], "momentum": 0.99, "epsilon": 0.001, "center": true, "scale": true, "beta_initializer": {"class_name": "Zeros", "config": {}}, "gamma_initializer": {"class_name": "Ones", "config": {}}, "moving_mean_initializer": {"class_name": "Zeros", "config": {}}, "moving_variance_initializer": {"class_name": "Ones", "config": {}}, "beta_regularizer": null, "gamma_regularizer": null, "beta_constraint": null, "gamma_constraint": null}, "name": "batch_normalization_15", "inbound_nodes": [[["dropout_13", 0, 0, {}]]]}, {"class_name": "BatchNormalization", "config": {"name": "batch_normalization_43", "trainable": true, "dtype": {"class_name": "Policy", "config": {"name": "mixed_float16"}}, "axis": [2], "momentum": 0.99, "epsilon": 0.001, "center": true, "scale": true, "beta_initializer": {"class_name": "Zeros", "config": {}}, "gamma_initializer": {"class_name": "Ones", "config": {}}, "moving_mean_initializer": {"class_name": "Zeros", "config": {}}, "moving_variance_initializer": {"class_name": "Ones", "config": {}}, "beta_regularizer": null, "gamma_regularizer": null, "beta_constraint": null, "gamma_constraint": null}, "name": "batch_normalization_43", "inbound_nodes": [[["dropout_35", 0, 0, {}]]]}, {"class_name": "BatchNormalization", "config": {"name": "batch_normalization_45", "trainable": true, "dtype": {"class_name": "Policy", "config": {"name": "mixed_float16"}}, "axis": [2], "momentum": 0.99, "epsilon": 0.001, "center": true, "scale": true, "beta_initializer": {"class_name": "Zeros", "config": {}}, "gamma_initializer": {"class_name": "Ones", "config": {}}, "moving_mean_initializer": {"class_name": "Zeros", "config": {}}, "moving_variance_initializer": {"class_name": "Ones", "config": {}}, "beta_regularizer": null, "gamma_regularizer": null, "beta_constraint": null, "gamma_constraint": null}, "name": "batch_normalization_45", "inbound_nodes": [[["dropout_37", 0, 0, {}]]]}, {"class_name": "BatchNormalization", "config": {"name": "batch_normalization_49", "trainable": true, "dtype": {"class_name": "Policy", "config": {"name": "mixed_float16"}}, "axis": [2], "momentum": 0.99, "epsilon": 0.001, "center": true, "scale": true, "beta_initializer": {"class_name": "Zeros", "config": {}}, "gamma_initializer": {"class_name": "Ones", "config": {}}, "moving_mean_initializer": {"class_name": "Zeros", "config": {}}, "moving_variance_initializer": {"class_name": "Ones", "config": {}}, "beta_regularizer": null, "gamma_regularizer": null, "beta_constraint": null, "gamma_constraint": null}, "name": "batch_normalization_49", "inbound_nodes": [[["dropout_41", 0, 0, {}]]]}, {"class_name": "Concatenate", "config": {"name": "concatenate_2", "trainable": true, "dtype": {"class_name": "Policy", "config": {"name": "mixed_float16"}}, "axis": -1}, "name": "concatenate_2", "inbound_nodes": [[["batch_normalization_9", 0, 0, {}], ["batch_normalization_11", 0, 0, {}], ["batch_normalization_15", 0, 0, {}]]]}, {"class_name": "Concatenate", "config": {"name": "concatenate_10", "trainable": true, "dtype": {"class_name": "Policy", "config": {"name": "mixed_float16"}}, "axis": -1}, "name": "concatenate_10", "inbound_nodes": [[["batch_normalization_43", 0, 0, {}], ["batch_normalization_45", 0, 0, {}], ["batch_normalization_49", 0, 0, {}]]]}, {"class_name": "BatchNormalization", "config": {"name": "batch_normalization_16", "trainable": true, "dtype": {"class_name": "Policy", "config": {"name": "mixed_float16"}}, "axis": [2], "momentum": 0.99, "epsilon": 0.001, "center": true, "scale": true, "beta_initializer": {"class_name": "Zeros", "config": {}}, "gamma_initializer": {"class_name": "Ones", "config": {}}, "moving_mean_initializer": {"class_name": "Zeros", "config": {}}, "moving_variance_initializer": {"class_name": "Ones", "config": {}}, "beta_regularizer": null, "gamma_regularizer": null, "beta_constraint": null, "gamma_constraint": null}, "name": "batch_normalization_16", "inbound_nodes": [[["concatenate_2", 0, 0, {}]]]}, {"class_name": "BatchNormalization", "config": {"name": "batch_normalization_50", "trainable": true, "dtype": {"class_name": "Policy", "config": {"name": "mixed_float16"}}, "axis": [2], "momentum": 0.99, "epsilon": 0.001, "center": true, "scale": true, "beta_initializer": {"class_name": "Zeros", "config": {}}, "gamma_initializer": {"class_name": "Ones", "config": {}}, "moving_mean_initializer": {"class_name": "Zeros", "config": {}}, "moving_variance_initializer": {"class_name": "Ones", "config": {}}, "beta_regularizer": null, "gamma_regularizer": null, "beta_constraint": null, "gamma_constraint": null}, "name": "batch_normalization_50", "inbound_nodes": [[["concatenate_10", 0, 0, {}]]]}, {"class_name": "GlobalAveragePooling1D", "config": {"name": "global_average_pooling1d_1", "trainable": true, "dtype": {"class_name": "Policy", "config": {"name": "mixed_float16"}}, "data_format": "channels_last"}, "name": "global_average_pooling1d_1", "inbound_nodes": [[["batch_normalization_16", 0, 0, {}]]]}, {"class_name": "GlobalMaxPooling1D", "config": {"name": "global_max_pooling1d_1", "trainable": true, "dtype": {"class_name": "Policy", "config": {"name": "mixed_float16"}}, "data_format": "channels_last"}, "name": "global_max_pooling1d_1", "inbound_nodes": [[["batch_normalization_16", 0, 0, {}]]]}, {"class_name": "GlobalAveragePooling1D", "config": {"name": "global_average_pooling1d_5", "trainable": true, "dtype": {"class_name": "Policy", "config": {"name": "mixed_float16"}}, "data_format": "channels_last"}, "name": "global_average_pooling1d_5", "inbound_nodes": [[["batch_normalization_50", 0, 0, {}]]]}, {"class_name": "GlobalMaxPooling1D", "config": {"name": "global_max_pooling1d_5", "trainable": true, "dtype": {"class_name": "Policy", "config": {"name": "mixed_float16"}}, "data_format": "channels_last"}, "name": "global_max_pooling1d_5", "inbound_nodes": [[["batch_normalization_50", 0, 0, {}]]]}, {"class_name": "Reshape", "config": {"name": "reshape_2", "trainable": true, "dtype": {"class_name": "Policy", "config": {"name": "mixed_float16"}}, "target_shape": [1, 384]}, "name": "reshape_2", "inbound_nodes": [[["global_average_pooling1d_1", 0, 0, {}]]]}, {"class_name": "Reshape", "config": {"name": "reshape_3", "trainable": true, "dtype": {"class_name": "Policy", "config": {"name": "mixed_float16"}}, "target_shape": [1, 384]}, "name": "reshape_3", "inbound_nodes": [[["global_max_pooling1d_1", 0, 0, {}]]]}, {"class_name": "Reshape", "config": {"name": "reshape_10", "trainable": true, "dtype": {"class_name": "Policy", "config": {"name": "mixed_float16"}}, "target_shape": [1, 384]}, "name": "reshape_10", "inbound_nodes": [[["global_average_pooling1d_5", 0, 0, {}]]]}, {"class_name": "Reshape", "config": {"name": "reshape_11", "trainable": true, "dtype": {"class_name": "Policy", "config": {"name": "mixed_float16"}}, "target_shape": [1, 384]}, "name": "reshape_11", "inbound_nodes": [[["global_max_pooling1d_5", 0, 0, {}]]]}, {"class_name": "Dense", "config": {"name": "dense_2", "trainable": true, "dtype": {"class_name": "Policy", "config": {"name": "mixed_float16"}}, "units": 48, "activation": "linear", "use_bias": true, "kernel_initializer": {"class_name": "VarianceScaling", "config": {"scale": 2.0, "mode": "fan_in", "distribution": "truncated_normal", "seed": null}}, "bias_initializer": {"class_name": "Zeros", "config": {}}, "kernel_regularizer": null, "bias_regularizer": null, "activity_regularizer": null, "kernel_constraint": null, "bias_constraint": null}, "name": "dense_2", "inbound_nodes": [[["reshape_2", 0, 0, {}]], [["reshape_3", 0, 0, {}]]]}, {"class_name": "Dense", "config": {"name": "dense_10", "trainable": true, "dtype": {"class_name": "Policy", "config": {"name": "mixed_float16"}}, "units": 48, "activation": "linear", "use_bias": true, "kernel_initializer": {"class_name": "VarianceScaling", "config": {"scale": 2.0, "mode": "fan_in", "distribution": "truncated_normal", "seed": null}}, "bias_initializer": {"class_name": "Zeros", "config": {}}, "kernel_regularizer": null, "bias_regularizer": null, "activity_regularizer": null, "kernel_constraint": null, "bias_constraint": null}, "name": "dense_10", "inbound_nodes": [[["reshape_10", 0, 0, {}]], [["reshape_11", 0, 0, {}]]]}, {"class_name": "Activation", "config": {"name": "activation_18", "trainable": true, "dtype": {"class_name": "Policy", "config": {"name": "mixed_float16"}}, "activation": "relu"}, "name": "activation_18", "inbound_nodes": [[["dense_2", 0, 0, {}]], [["dense_2", 1, 0, {}]]]}, {"class_name": "Activation", "config": {"name": "activation_62", "trainable": true, "dtype": {"class_name": "Policy", "config": {"name": "mixed_float16"}}, "activation": "relu"}, "name": "activation_62", "inbound_nodes": [[["dense_10", 0, 0, {}]], [["dense_10", 1, 0, {}]]]}, {"class_name": "Dense", "config": {"name": "dense_3", "trainable": true, "dtype": {"class_name": "Policy", "config": {"name": "mixed_float16"}}, "units": 384, "activation": "linear", "use_bias": true, "kernel_initializer": {"class_name": "VarianceScaling", "config": {"scale": 2.0, "mode": "fan_in", "distribution": "truncated_normal", "seed": null}}, "bias_initializer": {"class_name": "Zeros", "config": {}}, "kernel_regularizer": null, "bias_regularizer": null, "activity_regularizer": null, "kernel_constraint": null, "bias_constraint": null}, "name": "dense_3", "inbound_nodes": [[["activation_18", 0, 0, {}]], [["activation_18", 1, 0, {}]]]}, {"class_name": "Dense", "config": {"name": "dense_11", "trainable": true, "dtype": {"class_name": "Policy", "config": {"name": "mixed_float16"}}, "units": 384, "activation": "linear", "use_bias": true, "kernel_initializer": {"class_name": "VarianceScaling", "config": {"scale": 2.0, "mode": "fan_in", "distribution": "truncated_normal", "seed": null}}, "bias_initializer": {"class_name": "Zeros", "config": {}}, "kernel_regularizer": null, "bias_regularizer": null, "activity_regularizer": null, "kernel_constraint": null, "bias_constraint": null}, "name": "dense_11", "inbound_nodes": [[["activation_62", 0, 0, {}]], [["activation_62", 1, 0, {}]]]}, {"class_name": "Activation", "config": {"name": "activation_19", "trainable": true, "dtype": {"class_name": "Policy", "config": {"name": "mixed_float16"}}, "activation": "sigmoid"}, "name": "activation_19", "inbound_nodes": [[["dense_3", 0, 0, {}]], [["dense_3", 1, 0, {}]]]}, {"class_name": "Activation", "config": {"name": "activation_63", "trainable": true, "dtype": {"class_name": "Policy", "config": {"name": "mixed_float16"}}, "activation": "sigmoid"}, "name": "activation_63", "inbound_nodes": [[["dense_11", 0, 0, {}]], [["dense_11", 1, 0, {}]]]}, {"class_name": "Add", "config": {"name": "add_1", "trainable": true, "dtype": {"class_name": "Policy", "config": {"name": "mixed_float16"}}}, "name": "add_1", "inbound_nodes": [[["activation_19", 0, 0, {}], ["activation_19", 1, 0, {}]]]}, {"class_name": "Add", "config": {"name": "add_5", "trainable": true, "dtype": {"class_name": "Policy", "config": {"name": "mixed_float16"}}}, "name": "add_5", "inbound_nodes": [[["activation_63", 0, 0, {}], ["activation_63", 1, 0, {}]]]}, {"class_name": "Activation", "config": {"name": "activation_20", "trainable": true, "dtype": {"class_name": "Policy", "config": {"name": "mixed_float16"}}, "activation": "sigmoid"}, "name": "activation_20", "inbound_nodes": [[["add_1", 0, 0, {}]]]}, {"class_name": "Activation", "config": {"name": "activation_64", "trainable": true, "dtype": {"class_name": "Policy", "config": {"name": "mixed_float16"}}, "activation": "sigmoid"}, "name": "activation_64", "inbound_nodes": [[["add_5", 0, 0, {}]]]}, {"class_name": "Multiply", "config": {"name": "multiply_2", "trainable": true, "dtype": {"class_name": "Policy", "config": {"name": "mixed_float16"}}}, "name": "multiply_2", "inbound_nodes": [[["batch_normalization_16", 0, 0, {}], ["activation_20", 0, 0, {}]]]}, {"class_name": "Multiply", "config": {"name": "multiply_10", "trainable": true, "dtype": {"class_name": "Policy", "config": {"name": "mixed_float16"}}}, "name": "multiply_10", "inbound_nodes": [[["batch_normalization_50", 0, 0, {}], ["activation_64", 0, 0, {}]]]}, {"class_name": "Lambda", "config": {"name": "lambda_3", "trainable": true, "dtype": {"class_name": "Policy", "config": {"name": "mixed_float16"}}, "function": ["4wEAAAAAAAAAAQAAAAUAAABTAAAAcxAAAAB0AGoBfABkAWQCZAONA1MAKQRO6f////9UKQLaBGF4\naXPaCGtlZXBkaW1zKQLaAUvaBG1lYW4pAdoBeKkAcgcAAAD6TS4vY2JhbV9pbmNlcHRpb25fdGZp\nb19uZXdfZG91YmxlX2F0dGVudGlvbl9yYWRhbV9sYXN0X2xheWVyX2F0dGVudGlvbl9taXNoLnB5\n2gg8bGFtYmRhPmMBAADzAAAAAA==\n", null, null], "function_type": "lambda", "module": "__main__", "output_shape": null, "output_shape_type": "raw", "output_shape_module": null, "arguments": {}}, "name": "lambda_3", "inbound_nodes": [[["multiply_2", 0, 0, {}]]]}, {"class_name": "Lambda", "config": {"name": "lambda_4", "trainable": true, "dtype": {"class_name": "Policy", "config": {"name": "mixed_float16"}}, "function": ["4wEAAAAAAAAAAQAAAAUAAABTAAAAcxAAAAB0AGoBfABkAWQCZAONA1MAKQRO6f////9UKQLaBGF4\naXPaCGtlZXBkaW1zKQLaAUvaA21heCkB2gF4qQByBwAAAPpNLi9jYmFtX2luY2VwdGlvbl90Zmlv\nX25ld19kb3VibGVfYXR0ZW50aW9uX3JhZGFtX2xhc3RfbGF5ZXJfYXR0ZW50aW9uX21pc2gucHna\nCDxsYW1iZGE+ZgEAAPMAAAAA\n", null, null], "function_type": "lambda", "module": "__main__", "output_shape": null, "output_shape_type": "raw", "output_shape_module": null, "arguments": {}}, "name": "lambda_4", "inbound_nodes": [[["multiply_2", 0, 0, {}]]]}, {"class_name": "Lambda", "config": {"name": "lambda_15", "trainable": true, "dtype": {"class_name": "Policy", "config": {"name": "mixed_float16"}}, "function": ["4wEAAAAAAAAAAQAAAAUAAABTAAAAcxAAAAB0AGoBfABkAWQCZAONA1MAKQRO6f////9UKQLaBGF4\naXPaCGtlZXBkaW1zKQLaAUvaBG1lYW4pAdoBeKkAcgcAAAD6TS4vY2JhbV9pbmNlcHRpb25fdGZp\nb19uZXdfZG91YmxlX2F0dGVudGlvbl9yYWRhbV9sYXN0X2xheWVyX2F0dGVudGlvbl9taXNoLnB5\n2gg8bGFtYmRhPmMBAADzAAAAAA==\n", null, null], "function_type": "lambda", "module": "__main__", "output_shape": null, "output_shape_type": "raw", "output_shape_module": null, "arguments": {}}, "name": "lambda_15", "inbound_nodes": [[["multiply_10", 0, 0, {}]]]}, {"class_name": "Lambda", "config": {"name": "lambda_16", "trainable": true, "dtype": {"class_name": "Policy", "config": {"name": "mixed_float16"}}, "function": ["4wEAAAAAAAAAAQAAAAUAAABTAAAAcxAAAAB0AGoBfABkAWQCZAONA1MAKQRO6f////9UKQLaBGF4\naXPaCGtlZXBkaW1zKQLaAUvaA21heCkB2gF4qQByBwAAAPpNLi9jYmFtX2luY2VwdGlvbl90Zmlv\nX25ld19kb3VibGVfYXR0ZW50aW9uX3JhZGFtX2xhc3RfbGF5ZXJfYXR0ZW50aW9uX21pc2gucHna\nCDxsYW1iZGE+ZgEAAPMAAAAA\n", null, null], "function_type": "lambda", "module": "__main__", "output_shape": null, "output_shape_type": "raw", "output_shape_module": null, "arguments": {}}, "name": "lambda_16", "inbound_nodes": [[["multiply_10", 0, 0, {}]]]}, {"class_name": "Concatenate", "config": {"name": "concatenate_3", "trainable": true, "dtype": {"class_name": "Policy", "config": {"name": "mixed_float16"}}, "axis": -1}, "name": "concatenate_3", "inbound_nodes": [[["lambda_3", 0, 0, {}], ["lambda_4", 0, 0, {}]]]}, {"class_name": "Concatenate", "config": {"name": "concatenate_11", "trainable": true, "dtype": {"class_name": "Policy", "config": {"name": "mixed_float16"}}, "axis": -1}, "name": "concatenate_11", "inbound_nodes": [[["lambda_15", 0, 0, {}], ["lambda_16", 0, 0, {}]]]}, {"class_name": "Conv1D", "config": {"name": "conv1d_16", "trainable": true, "dtype": {"class_name": "Policy", "config": {"name": "mixed_float16"}}, "filters": 1, "kernel_size": [7], "strides": [1], "padding": "same", "data_format": "channels_last", "dilation_rate": [1], "activation": "linear", "use_bias": false, "kernel_initializer": {"class_name": "GlorotUniform", "config": {"seed": null}}, "bias_initializer": {"class_name": "Zeros", "config": {}}, "kernel_regularizer": null, "bias_regularizer": null, "activity_regularizer": null, "kernel_constraint": null, "bias_constraint": null}, "name": "conv1d_16", "inbound_nodes": [[["concatenate_3", 0, 0, {}]]]}, {"class_name": "Conv1D", "config": {"name": "conv1d_50", "trainable": true, "dtype": {"class_name": "Policy", "config": {"name": "mixed_float16"}}, "filters": 1, "kernel_size": [7], "strides": [1], "padding": "same", "data_format": "channels_last", "dilation_rate": [1], "activation": "linear", "use_bias": false, "kernel_initializer": {"class_name": "GlorotUniform", "config": {"seed": null}}, "bias_initializer": {"class_name": "Zeros", "config": {}}, "kernel_regularizer": null, "bias_regularizer": null, "activity_regularizer": null, "kernel_constraint": null, "bias_constraint": null}, "name": "conv1d_50", "inbound_nodes": [[["concatenate_11", 0, 0, {}]]]}, {"class_name": "Conv1D", "config": {"name": "conv1d_17", "trainable": true, "dtype": {"class_name": "Policy", "config": {"name": "mixed_float16"}}, "filters": 384, "kernel_size": [1], "strides": [1], "padding": "same", "data_format": "channels_last", "dilation_rate": [1], "activation": "linear", "use_bias": true, "kernel_initializer": {"class_name": "VarianceScaling", "config": {"scale": 2.0, "mode": "fan_in", "distribution": "truncated_normal", "seed": null}}, "bias_initializer": {"class_name": "Zeros", "config": {}}, "kernel_regularizer": {"class_name": "L1L2", "config": {"l1": 0.0, "l2": 9.999999747378752e-05}}, "bias_regularizer": null, "activity_regularizer": null, "kernel_constraint": null, "bias_constraint": null}, "name": "conv1d_17", "inbound_nodes": [[["input_1", 0, 0, {}]]]}, {"class_name": "Activation", "config": {"name": "activation_21", "trainable": true, "dtype": {"class_name": "Policy", "config": {"name": "mixed_float16"}}, "activation": "sigmoid"}, "name": "activation_21", "inbound_nodes": [[["conv1d_16", 0, 0, {}]]]}, {"class_name": "Activation", "config": {"name": "activation_65", "trainable": true, "dtype": {"class_name": "Policy", "config": {"name": "mixed_float16"}}, "activation": "sigmoid"}, "name": "activation_65", "inbound_nodes": [[["conv1d_50", 0, 0, {}]]]}, {"class_name": "BatchNormalization", "config": {"name": "batch_normalization_17", "trainable": true, "dtype": {"class_name": "Policy", "config": {"name": "mixed_float16"}}, "axis": [2], "momentum": 0.99, "epsilon": 0.001, "center": true, "scale": true, "beta_initializer": {"class_name": "Zeros", "config": {}}, "gamma_initializer": {"class_name": "Ones", "config": {}}, "moving_mean_initializer": {"class_name": "Zeros", "config": {}}, "moving_variance_initializer": {"class_name": "Ones", "config": {}}, "beta_regularizer": null, "gamma_regularizer": null, "beta_constraint": null, "gamma_constraint": null}, "name": "batch_normalization_17", "inbound_nodes": [[["conv1d_17", 0, 0, {}]]]}, {"class_name": "Multiply", "config": {"name": "multiply_3", "trainable": true, "dtype": {"class_name": "Policy", "config": {"name": "mixed_float16"}}}, "name": "multiply_3", "inbound_nodes": [[["multiply_2", 0, 0, {}], ["activation_21", 0, 0, {}]]]}, {"class_name": "Multiply", "config": {"name": "multiply_11", "trainable": true, "dtype": {"class_name": "Policy", "config": {"name": "mixed_float16"}}}, "name": "multiply_11", "inbound_nodes": [[["multiply_10", 0, 0, {}], ["activation_65", 0, 0, {}]]]}, {"class_name": "Lambda", "config": {"name": "lambda_5", "trainable": true, "dtype": {"class_name": "Policy", "config": {"name": "mixed_float16"}}, "function": ["4wIAAAAAAAAAAgAAAAMAAABTAAAAcxQAAAB8AGQBGQB8AGQCGQB8ARQAFwBTACkDTukAAAAA6QEA\nAACpACkC2gZpbnB1dHPaBXNjYWxlcgMAAAByAwAAAPpNLi9jYmFtX2luY2VwdGlvbl90ZmlvX25l\nd19kb3VibGVfYXR0ZW50aW9uX3JhZGFtX2xhc3RfbGF5ZXJfYXR0ZW50aW9uX21pc2gucHnaCDxs\nYW1iZGE+8gEAAPMAAAAA\n", null, null], "function_type": "lambda", "module": "__main__", "output_shape": [61, 384], "output_shape_type": "raw", "output_shape_module": null, "arguments": {"scale": 0.2}}, "name": "lambda_5", "inbound_nodes": [[["batch_normalization_17", 0, 0, {}], ["multiply_3", 0, 0, {}]]]}, {"class_name": "Lambda", "config": {"name": "lambda_17", "trainable": true, "dtype": {"class_name": "Policy", "config": {"name": "mixed_float16"}}, "function": ["4wIAAAAAAAAAAgAAAAMAAABTAAAAcxQAAAB8AGQBGQB8AGQCGQB8ARQAFwBTACkDTukAAAAA6QEA\nAACpACkC2gZpbnB1dHPaBXNjYWxlcgMAAAByAwAAAPpNLi9jYmFtX2luY2VwdGlvbl90ZmlvX25l\nd19kb3VibGVfYXR0ZW50aW9uX3JhZGFtX2xhc3RfbGF5ZXJfYXR0ZW50aW9uX21pc2gucHnaCDxs\nYW1iZGE+8gEAAPMAAAAA\n", null, null], "function_type": "lambda", "module": "__main__", "output_shape": [61, 384], "output_shape_type": "raw", "output_shape_module": null, "arguments": {"scale": 0.2}}, "name": "lambda_17", "inbound_nodes": [[["lambda_14", 0, 0, {}], ["multiply_11", 0, 0, {}]]]}, {"class_name": "Conv1D", "config": {"name": "conv1d_3", "trainable": true, "dtype": {"class_name": "Policy", "config": {"name": "mixed_float16"}}, "filters": 128, "kernel_size": [1], "strides": [1], "padding": "same", "data_format": "channels_last", "dilation_rate": [1], "activation": "linear", "use_bias": true, "kernel_initializer": {"class_name": "GlorotUniform", "config": {"seed": null}}, "bias_initializer": {"class_name": "Zeros", "config": {}}, "kernel_regularizer": null, "bias_regularizer": null, "activity_regularizer": null, "kernel_constraint": null, "bias_constraint": null}, "name": "conv1d_3", "inbound_nodes": [[["input_1", 0, 0, {}]]]}, {"class_name": "Conv1D", "config": {"name": "conv1d_21", "trainable": true, "dtype": {"class_name": "Policy", "config": {"name": "mixed_float16"}}, "filters": 128, "kernel_size": [1], "strides": [1], "padding": "same", "data_format": "channels_last", "dilation_rate": [1], "activation": "linear", "use_bias": true, "kernel_initializer": {"class_name": "GlorotUniform", "config": {"seed": null}}, "bias_initializer": {"class_name": "Zeros", "config": {}}, "kernel_regularizer": null, "bias_regularizer": null, "activity_regularizer": null, "kernel_constraint": null, "bias_constraint": null}, "name": "conv1d_21", "inbound_nodes": [[["lambda_5", 0, 0, {}]]]}, {"class_name": "Conv1D", "config": {"name": "conv1d_54", "trainable": true, "dtype": {"class_name": "Policy", "config": {"name": "mixed_float16"}}, "filters": 128, "kernel_size": [1], "strides": [1], "padding": "same", "data_format": "channels_last", "dilation_rate": [1], "activation": "linear", "use_bias": true, "kernel_initializer": {"class_name": "GlorotUniform", "config": {"seed": null}}, "bias_initializer": {"class_name": "Zeros", "config": {}}, "kernel_regularizer": null, "bias_regularizer": null, "activity_regularizer": null, "kernel_constraint": null, "bias_constraint": null}, "name": "conv1d_54", "inbound_nodes": [[["lambda_17", 0, 0, {}]]]}, {"class_name": "Activation", "config": {"name": "activation_3", "trainable": true, "dtype": {"class_name": "Policy", "config": {"name": "mixed_float16"}}, "activation": {"class_name": "Mish", "config": {"name": "mish", "trainable": true, "dtype": {"class_name": "Policy", "config": {"name": "mixed_float16"}}, "activation": "Addons>mish"}}}, "name": "activation_3", "inbound_nodes": [[["conv1d_3", 0, 0, {}]]]}, {"class_name": "Activation", "config": {"name": "activation_25", "trainable": true, "dtype": {"class_name": "Policy", "config": {"name": "mixed_float16"}}, "activation": {"class_name": "Mish", "config": {"name": "mish", "trainable": true, "dtype": {"class_name": "Policy", "config": {"name": "mixed_float16"}}, "activation": "Addons>mish"}}}, "name": "activation_25", "inbound_nodes": [[["conv1d_21", 0, 0, {}]]]}, {"class_name": "Activation", "config": {"name": "activation_69", "trainable": true, "dtype": {"class_name": "Policy", "config": {"name": "mixed_float16"}}, "activation": {"class_name": "Mish", "config": {"name": "mish", "trainable": true, "dtype": {"class_name": "Policy", "config": {"name": "mixed_float16"}}, "activation": "Addons>mish"}}}, "name": "activation_69", "inbound_nodes": [[["conv1d_54", 0, 0, {}]]]}, {"class_name": "Dropout", "config": {"name": "dropout_3", "trainable": true, "dtype": {"class_name": "Policy", "config": {"name": "mixed_float16"}}, "rate": 0.3, "noise_shape": null, "seed": null}, "name": "dropout_3", "inbound_nodes": [[["activation_3", 0, 0, {}]]]}, {"class_name": "Dropout", "config": {"name": "dropout_17", "trainable": true, "dtype": {"class_name": "Policy", "config": {"name": "mixed_float16"}}, "rate": 0.3, "noise_shape": null, "seed": null}, "name": "dropout_17", "inbound_nodes": [[["activation_25", 0, 0, {}]]]}, {"class_name": "Dropout", "config": {"name": "dropout_45", "trainable": true, "dtype": {"class_name": "Policy", "config": {"name": "mixed_float16"}}, "rate": 0.3, "noise_shape": null, "seed": null}, "name": "dropout_45", "inbound_nodes": [[["activation_69", 0, 0, {}]]]}, {"class_name": "BatchNormalization", "config": {"name": "batch_normalization_3", "trainable": true, "dtype": {"class_name": "Policy", "config": {"name": "mixed_float16"}}, "axis": [2], "momentum": 0.99, "epsilon": 0.001, "center": true, "scale": true, "beta_initializer": {"class_name": "Zeros", "config": {}}, "gamma_initializer": {"class_name": "Ones", "config": {}}, "moving_mean_initializer": {"class_name": "Zeros", "config": {}}, "moving_variance_initializer": {"class_name": "Ones", "config": {}}, "beta_regularizer": null, "gamma_regularizer": null, "beta_constraint": null, "gamma_constraint": null}, "name": "batch_normalization_3", "inbound_nodes": [[["dropout_3", 0, 0, {}]]]}, {"class_name": "BatchNormalization", "config": {"name": "batch_normalization_21", "trainable": true, "dtype": {"class_name": "Policy", "config": {"name": "mixed_float16"}}, "axis": [2], "momentum": 0.99, "epsilon": 0.001, "center": true, "scale": true, "beta_initializer": {"class_name": "Zeros", "config": {}}, "gamma_initializer": {"class_name": "Ones", "config": {}}, "moving_mean_initializer": {"class_name": "Zeros", "config": {}}, "moving_variance_initializer": {"class_name": "Ones", "config": {}}, "beta_regularizer": null, "gamma_regularizer": null, "beta_constraint": null, "gamma_constraint": null}, "name": "batch_normalization_21", "inbound_nodes": [[["dropout_17", 0, 0, {}]]]}, {"class_name": "BatchNormalization", "config": {"name": "batch_normalization_54", "trainable": true, "dtype": {"class_name": "Policy", "config": {"name": "mixed_float16"}}, "axis": [2], "momentum": 0.99, "epsilon": 0.001, "center": true, "scale": true, "beta_initializer": {"class_name": "Zeros", "config": {}}, "gamma_initializer": {"class_name": "Ones", "config": {}}, "moving_mean_initializer": {"class_name": "Zeros", "config": {}}, "moving_variance_initializer": {"class_name": "Ones", "config": {}}, "beta_regularizer": null, "gamma_regularizer": null, "beta_constraint": null, "gamma_constraint": null}, "name": "batch_normalization_54", "inbound_nodes": [[["dropout_45", 0, 0, {}]]]}, {"class_name": "Conv1D", "config": {"name": "conv1d_4", "trainable": true, "dtype": {"class_name": "Policy", "config": {"name": "mixed_float16"}}, "filters": 128, "kernel_size": [3], "strides": [1], "padding": "same", "data_format": "channels_last", "dilation_rate": [1], "activation": "linear", "use_bias": true, "kernel_initializer": {"class_name": "GlorotUniform", "config": {"seed": null}}, "bias_initializer": {"class_name": "Zeros", "config": {}}, "kernel_regularizer": null, "bias_regularizer": null, "activity_regularizer": null, "kernel_constraint": null, "bias_constraint": null}, "name": "conv1d_4", "inbound_nodes": [[["batch_normalization_3", 0, 0, {}]]]}, {"class_name": "Conv1D", "config": {"name": "conv1d_22", "trainable": true, "dtype": {"class_name": "Policy", "config": {"name": "mixed_float16"}}, "filters": 128, "kernel_size": [3], "strides": [1], "padding": "same", "data_format": "channels_last", "dilation_rate": [1], "activation": "linear", "use_bias": true, "kernel_initializer": {"class_name": "GlorotUniform", "config": {"seed": null}}, "bias_initializer": {"class_name": "Zeros", "config": {}}, "kernel_regularizer": null, "bias_regularizer": null, "activity_regularizer": null, "kernel_constraint": null, "bias_constraint": null}, "name": "conv1d_22", "inbound_nodes": [[["batch_normalization_21", 0, 0, {}]]]}, {"class_name": "Conv1D", "config": {"name": "conv1d_55", "trainable": true, "dtype": {"class_name": "Policy", "config": {"name": "mixed_float16"}}, "filters": 128, "kernel_size": [3], "strides": [1], "padding": "same", "data_format": "channels_last", "dilation_rate": [1], "activation": "linear", "use_bias": true, "kernel_initializer": {"class_name": "GlorotUniform", "config": {"seed": null}}, "bias_initializer": {"class_name": "Zeros", "config": {}}, "kernel_regularizer": null, "bias_regularizer": null, "activity_regularizer": null, "kernel_constraint": null, "bias_constraint": null}, "name": "conv1d_55", "inbound_nodes": [[["batch_normalization_54", 0, 0, {}]]]}, {"class_name": "Activation", "config": {"name": "activation_4", "trainable": true, "dtype": {"class_name": "Policy", "config": {"name": "mixed_float16"}}, "activation": {"class_name": "Mish", "config": {"name": "mish", "trainable": true, "dtype": {"class_name": "Policy", "config": {"name": "mixed_float16"}}, "activation": "Addons>mish"}}}, "name": "activation_4", "inbound_nodes": [[["conv1d_4", 0, 0, {}]]]}, {"class_name": "Activation", "config": {"name": "activation_26", "trainable": true, "dtype": {"class_name": "Policy", "config": {"name": "mixed_float16"}}, "activation": {"class_name": "Mish", "config": {"name": "mish", "trainable": true, "dtype": {"class_name": "Policy", "config": {"name": "mixed_float16"}}, "activation": "Addons>mish"}}}, "name": "activation_26", "inbound_nodes": [[["conv1d_22", 0, 0, {}]]]}, {"class_name": "Activation", "config": {"name": "activation_70", "trainable": true, "dtype": {"class_name": "Policy", "config": {"name": "mixed_float16"}}, "activation": {"class_name": "Mish", "config": {"name": "mish", "trainable": true, "dtype": {"class_name": "Policy", "config": {"name": "mixed_float16"}}, "activation": "Addons>mish"}}}, "name": "activation_70", "inbound_nodes": [[["conv1d_55", 0, 0, {}]]]}, {"class_name": "Dropout", "config": {"name": "dropout_4", "trainable": true, "dtype": {"class_name": "Policy", "config": {"name": "mixed_float16"}}, "rate": 0.3, "noise_shape": null, "seed": null}, "name": "dropout_4", "inbound_nodes": [[["activation_4", 0, 0, {}]]]}, {"class_name": "Dropout", "config": {"name": "dropout_18", "trainable": true, "dtype": {"class_name": "Policy", "config": {"name": "mixed_float16"}}, "rate": 0.3, "noise_shape": null, "seed": null}, "name": "dropout_18", "inbound_nodes": [[["activation_26", 0, 0, {}]]]}, {"class_name": "Dropout", "config": {"name": "dropout_46", "trainable": true, "dtype": {"class_name": "Policy", "config": {"name": "mixed_float16"}}, "rate": 0.3, "noise_shape": null, "seed": null}, "name": "dropout_46", "inbound_nodes": [[["activation_70", 0, 0, {}]]]}, {"class_name": "BatchNormalization", "config": {"name": "batch_normalization_4", "trainable": true, "dtype": {"class_name": "Policy", "config": {"name": "mixed_float16"}}, "axis": [2], "momentum": 0.99, "epsilon": 0.001, "center": true, "scale": true, "beta_initializer": {"class_name": "Zeros", "config": {}}, "gamma_initializer": {"class_name": "Ones", "config": {}}, "moving_mean_initializer": {"class_name": "Zeros", "config": {}}, "moving_variance_initializer": {"class_name": "Ones", "config": {}}, "beta_regularizer": null, "gamma_regularizer": null, "beta_constraint": null, "gamma_constraint": null}, "name": "batch_normalization_4", "inbound_nodes": [[["dropout_4", 0, 0, {}]]]}, {"class_name": "BatchNormalization", "config": {"name": "batch_normalization_22", "trainable": true, "dtype": {"class_name": "Policy", "config": {"name": "mixed_float16"}}, "axis": [2], "momentum": 0.99, "epsilon": 0.001, "center": true, "scale": true, "beta_initializer": {"class_name": "Zeros", "config": {}}, "gamma_initializer": {"class_name": "Ones", "config": {}}, "moving_mean_initializer": {"class_name": "Zeros", "config": {}}, "moving_variance_initializer": {"class_name": "Ones", "config": {}}, "beta_regularizer": null, "gamma_regularizer": null, "beta_constraint": null, "gamma_constraint": null}, "name": "batch_normalization_22", "inbound_nodes": [[["dropout_18", 0, 0, {}]]]}, {"class_name": "BatchNormalization", "config": {"name": "batch_normalization_55", "trainable": true, "dtype": {"class_name": "Policy", "config": {"name": "mixed_float16"}}, "axis": [2], "momentum": 0.99, "epsilon": 0.001, "center": true, "scale": true, "beta_initializer": {"class_name": "Zeros", "config": {}}, "gamma_initializer": {"class_name": "Ones", "config": {}}, "moving_mean_initializer": {"class_name": "Zeros", "config": {}}, "moving_variance_initializer": {"class_name": "Ones", "config": {}}, "beta_regularizer": null, "gamma_regularizer": null, "beta_constraint": null, "gamma_constraint": null}, "name": "batch_normalization_55", "inbound_nodes": [[["dropout_46", 0, 0, {}]]]}, {"class_name": "Conv1D", "config": {"name": "conv1d_1", "trainable": true, "dtype": {"class_name": "Policy", "config": {"name": "mixed_float16"}}, "filters": 128, "kernel_size": [1], "strides": [1], "padding": "same", "data_format": "channels_last", "dilation_rate": [1], "activation": "linear", "use_bias": true, "kernel_initializer": {"class_name": "GlorotUniform", "config": {"seed": null}}, "bias_initializer": {"class_name": "Zeros", "config": {}}, "kernel_regularizer": null, "bias_regularizer": null, "activity_regularizer": null, "kernel_constraint": null, "bias_constraint": null}, "name": "conv1d_1", "inbound_nodes": [[["input_1", 0, 0, {}]]]}, {"class_name": "Conv1D", "config": {"name": "conv1d_5", "trainable": true, "dtype": {"class_name": "Policy", "config": {"name": "mixed_float16"}}, "filters": 128, "kernel_size": [3], "strides": [1], "padding": "same", "data_format": "channels_last", "dilation_rate": [1], "activation": "linear", "use_bias": true, "kernel_initializer": {"class_name": "GlorotUniform", "config": {"seed": null}}, "bias_initializer": {"class_name": "Zeros", "config": {}}, "kernel_regularizer": null, "bias_regularizer": null, "activity_regularizer": null, "kernel_constraint": null, "bias_constraint": null}, "name": "conv1d_5", "inbound_nodes": [[["batch_normalization_4", 0, 0, {}]]]}, {"class_name": "Conv1D", "config": {"name": "conv1d_19", "trainable": true, "dtype": {"class_name": "Policy", "config": {"name": "mixed_float16"}}, "filters": 128, "kernel_size": [1], "strides": [1], "padding": "same", "data_format": "channels_last", "dilation_rate": [1], "activation": "linear", "use_bias": true, "kernel_initializer": {"class_name": "GlorotUniform", "config": {"seed": null}}, "bias_initializer": {"class_name": "Zeros", "config": {}}, "kernel_regularizer": null, "bias_regularizer": null, "activity_regularizer": null, "kernel_constraint": null, "bias_constraint": null}, "name": "conv1d_19", "inbound_nodes": [[["lambda_5", 0, 0, {}]]]}, {"class_name": "Conv1D", "config": {"name": "conv1d_23", "trainable": true, "dtype": {"class_name": "Policy", "config": {"name": "mixed_float16"}}, "filters": 128, "kernel_size": [3], "strides": [1], "padding": "same", "data_format": "channels_last", "dilation_rate": [1], "activation": "linear", "use_bias": true, "kernel_initializer": {"class_name": "GlorotUniform", "config": {"seed": null}}, "bias_initializer": {"class_name": "Zeros", "config": {}}, "kernel_regularizer": null, "bias_regularizer": null, "activity_regularizer": null, "kernel_constraint": null, "bias_constraint": null}, "name": "conv1d_23", "inbound_nodes": [[["batch_normalization_22", 0, 0, {}]]]}, {"class_name": "Conv1D", "config": {"name": "conv1d_52", "trainable": true, "dtype": {"class_name": "Policy", "config": {"name": "mixed_float16"}}, "filters": 128, "kernel_size": [1], "strides": [1], "padding": "same", "data_format": "channels_last", "dilation_rate": [1], "activation": "linear", "use_bias": true, "kernel_initializer": {"class_name": "GlorotUniform", "config": {"seed": null}}, "bias_initializer": {"class_name": "Zeros", "config": {}}, "kernel_regularizer": null, "bias_regularizer": null, "activity_regularizer": null, "kernel_constraint": null, "bias_constraint": null}, "name": "conv1d_52", "inbound_nodes": [[["lambda_17", 0, 0, {}]]]}, {"class_name": "Conv1D", "config": {"name": "conv1d_56", "trainable": true, "dtype": {"class_name": "Policy", "config": {"name": "mixed_float16"}}, "filters": 128, "kernel_size": [3], "strides": [1], "padding": "same", "data_format": "channels_last", "dilation_rate": [1], "activation": "linear", "use_bias": true, "kernel_initializer": {"class_name": "GlorotUniform", "config": {"seed": null}}, "bias_initializer": {"class_name": "Zeros", "config": {}}, "kernel_regularizer": null, "bias_regularizer": null, "activity_regularizer": null, "kernel_constraint": null, "bias_constraint": null}, "name": "conv1d_56", "inbound_nodes": [[["batch_normalization_55", 0, 0, {}]]]}, {"class_name": "Activation", "config": {"name": "activation_1", "trainable": true, "dtype": {"class_name": "Policy", "config": {"name": "mixed_float16"}}, "activation": {"class_name": "Mish", "config": {"name": "mish", "trainable": true, "dtype": {"class_name": "Policy", "config": {"name": "mixed_float16"}}, "activation": "Addons>mish"}}}, "name": "activation_1", "inbound_nodes": [[["conv1d_1", 0, 0, {}]]]}, {"class_name": "Activation", "config": {"name": "activation_5", "trainable": true, "dtype": {"class_name": "Policy", "config": {"name": "mixed_float16"}}, "activation": {"class_name": "Mish", "config": {"name": "mish", "trainable": true, "dtype": {"class_name": "Policy", "config": {"name": "mixed_float16"}}, "activation": "Addons>mish"}}}, "name": "activation_5", "inbound_nodes": [[["conv1d_5", 0, 0, {}]]]}, {"class_name": "Activation", "config": {"name": "activation_23", "trainable": true, "dtype": {"class_name": "Policy", "config": {"name": "mixed_float16"}}, "activation": {"class_name": "Mish", "config": {"name": "mish", "trainable": true, "dtype": {"class_name": "Policy", "config": {"name": "mixed_float16"}}, "activation": "Addons>mish"}}}, "name": "activation_23", "inbound_nodes": [[["conv1d_19", 0, 0, {}]]]}, {"class_name": "Activation", "config": {"name": "activation_27", "trainable": true, "dtype": {"class_name": "Policy", "config": {"name": "mixed_float16"}}, "activation": {"class_name": "Mish", "config": {"name": "mish", "trainable": true, "dtype": {"class_name": "Policy", "config": {"name": "mixed_float16"}}, "activation": "Addons>mish"}}}, "name": "activation_27", "inbound_nodes": [[["conv1d_23", 0, 0, {}]]]}, {"class_name": "Activation", "config": {"name": "activation_67", "trainable": true, "dtype": {"class_name": "Policy", "config": {"name": "mixed_float16"}}, "activation": {"class_name": "Mish", "config": {"name": "mish", "trainable": true, "dtype": {"class_name": "Policy", "config": {"name": "mixed_float16"}}, "activation": "Addons>mish"}}}, "name": "activation_67", "inbound_nodes": [[["conv1d_52", 0, 0, {}]]]}, {"class_name": "Activation", "config": {"name": "activation_71", "trainable": true, "dtype": {"class_name": "Policy", "config": {"name": "mixed_float16"}}, "activation": {"class_name": "Mish", "config": {"name": "mish", "trainable": true, "dtype": {"class_name": "Policy", "config": {"name": "mixed_float16"}}, "activation": "Addons>mish"}}}, "name": "activation_71", "inbound_nodes": [[["conv1d_56", 0, 0, {}]]]}, {"class_name": "Dropout", "config": {"name": "dropout_1", "trainable": true, "dtype": {"class_name": "Policy", "config": {"name": "mixed_float16"}}, "rate": 0.3, "noise_shape": null, "seed": null}, "name": "dropout_1", "inbound_nodes": [[["activation_1", 0, 0, {}]]]}, {"class_name": "Dropout", "config": {"name": "dropout_5", "trainable": true, "dtype": {"class_name": "Policy", "config": {"name": "mixed_float16"}}, "rate": 0.3, "noise_shape": null, "seed": null}, "name": "dropout_5", "inbound_nodes": [[["activation_5", 0, 0, {}]]]}, {"class_name": "Dropout", "config": {"name": "dropout_15", "trainable": true, "dtype": {"class_name": "Policy", "config": {"name": "mixed_float16"}}, "rate": 0.3, "noise_shape": null, "seed": null}, "name": "dropout_15", "inbound_nodes": [[["activation_23", 0, 0, {}]]]}, {"class_name": "Dropout", "config": {"name": "dropout_19", "trainable": true, "dtype": {"class_name": "Policy", "config": {"name": "mixed_float16"}}, "rate": 0.3, "noise_shape": null, "seed": null}, "name": "dropout_19", "inbound_nodes": [[["activation_27", 0, 0, {}]]]}, {"class_name": "Dropout", "config": {"name": "dropout_43", "trainable": true, "dtype": {"class_name": "Policy", "config": {"name": "mixed_float16"}}, "rate": 0.3, "noise_shape": null, "seed": null}, "name": "dropout_43", "inbound_nodes": [[["activation_67", 0, 0, {}]]]}, {"class_name": "Dropout", "config": {"name": "dropout_47", "trainable": true, "dtype": {"class_name": "Policy", "config": {"name": "mixed_float16"}}, "rate": 0.3, "noise_shape": null, "seed": null}, "name": "dropout_47", "inbound_nodes": [[["activation_71", 0, 0, {}]]]}, {"class_name": "BatchNormalization", "config": {"name": "batch_normalization_1", "trainable": true, "dtype": {"class_name": "Policy", "config": {"name": "mixed_float16"}}, "axis": [2], "momentum": 0.99, "epsilon": 0.001, "center": true, "scale": true, "beta_initializer": {"class_name": "Zeros", "config": {}}, "gamma_initializer": {"class_name": "Ones", "config": {}}, "moving_mean_initializer": {"class_name": "Zeros", "config": {}}, "moving_variance_initializer": {"class_name": "Ones", "config": {}}, "beta_regularizer": null, "gamma_regularizer": null, "beta_constraint": null, "gamma_constraint": null}, "name": "batch_normalization_1", "inbound_nodes": [[["dropout_1", 0, 0, {}]]]}, {"class_name": "BatchNormalization", "config": {"name": "batch_normalization_5", "trainable": true, "dtype": {"class_name": "Policy", "config": {"name": "mixed_float16"}}, "axis": [2], "momentum": 0.99, "epsilon": 0.001, "center": true, "scale": true, "beta_initializer": {"class_name": "Zeros", "config": {}}, "gamma_initializer": {"class_name": "Ones", "config": {}}, "moving_mean_initializer": {"class_name": "Zeros", "config": {}}, "moving_variance_initializer": {"class_name": "Ones", "config": {}}, "beta_regularizer": null, "gamma_regularizer": null, "beta_constraint": null, "gamma_constraint": null}, "name": "batch_normalization_5", "inbound_nodes": [[["dropout_5", 0, 0, {}]]]}, {"class_name": "BatchNormalization", "config": {"name": "batch_normalization_19", "trainable": true, "dtype": {"class_name": "Policy", "config": {"name": "mixed_float16"}}, "axis": [2], "momentum": 0.99, "epsilon": 0.001, "center": true, "scale": true, "beta_initializer": {"class_name": "Zeros", "config": {}}, "gamma_initializer": {"class_name": "Ones", "config": {}}, "moving_mean_initializer": {"class_name": "Zeros", "config": {}}, "moving_variance_initializer": {"class_name": "Ones", "config": {}}, "beta_regularizer": null, "gamma_regularizer": null, "beta_constraint": null, "gamma_constraint": null}, "name": "batch_normalization_19", "inbound_nodes": [[["dropout_15", 0, 0, {}]]]}, {"class_name": "BatchNormalization", "config": {"name": "batch_normalization_23", "trainable": true, "dtype": {"class_name": "Policy", "config": {"name": "mixed_float16"}}, "axis": [2], "momentum": 0.99, "epsilon": 0.001, "center": true, "scale": true, "beta_initializer": {"class_name": "Zeros", "config": {}}, "gamma_initializer": {"class_name": "Ones", "config": {}}, "moving_mean_initializer": {"class_name": "Zeros", "config": {}}, "moving_variance_initializer": {"class_name": "Ones", "config": {}}, "beta_regularizer": null, "gamma_regularizer": null, "beta_constraint": null, "gamma_constraint": null}, "name": "batch_normalization_23", "inbound_nodes": [[["dropout_19", 0, 0, {}]]]}, {"class_name": "BatchNormalization", "config": {"name": "batch_normalization_52", "trainable": true, "dtype": {"class_name": "Policy", "config": {"name": "mixed_float16"}}, "axis": [2], "momentum": 0.99, "epsilon": 0.001, "center": true, "scale": true, "beta_initializer": {"class_name": "Zeros", "config": {}}, "gamma_initializer": {"class_name": "Ones", "config": {}}, "moving_mean_initializer": {"class_name": "Zeros", "config": {}}, "moving_variance_initializer": {"class_name": "Ones", "config": {}}, "beta_regularizer": null, "gamma_regularizer": null, "beta_constraint": null, "gamma_constraint": null}, "name": "batch_normalization_52", "inbound_nodes": [[["dropout_43", 0, 0, {}]]]}, {"class_name": "BatchNormalization", "config": {"name": "batch_normalization_56", "trainable": true, "dtype": {"class_name": "Policy", "config": {"name": "mixed_float16"}}, "axis": [2], "momentum": 0.99, "epsilon": 0.001, "center": true, "scale": true, "beta_initializer": {"class_name": "Zeros", "config": {}}, "gamma_initializer": {"class_name": "Ones", "config": {}}, "moving_mean_initializer": {"class_name": "Zeros", "config": {}}, "moving_variance_initializer": {"class_name": "Ones", "config": {}}, "beta_regularizer": null, "gamma_regularizer": null, "beta_constraint": null, "gamma_constraint": null}, "name": "batch_normalization_56", "inbound_nodes": [[["dropout_47", 0, 0, {}]]]}, {"class_name": "Conv1D", "config": {"name": "conv1d", "trainable": true, "dtype": {"class_name": "Policy", "config": {"name": "mixed_float16"}}, "filters": 128, "kernel_size": [1], "strides": [1], "padding": "same", "data_format": "channels_last", "dilation_rate": [1], "activation": "linear", "use_bias": true, "kernel_initializer": {"class_name": "GlorotUniform", "config": {"seed": null}}, "bias_initializer": {"class_name": "Zeros", "config": {}}, "kernel_regularizer": null, "bias_regularizer": null, "activity_regularizer": null, "kernel_constraint": null, "bias_constraint": null}, "name": "conv1d", "inbound_nodes": [[["input_1", 0, 0, {}]]]}, {"class_name": "Conv1D", "config": {"name": "conv1d_2", "trainable": true, "dtype": {"class_name": "Policy", "config": {"name": "mixed_float16"}}, "filters": 128, "kernel_size": [3], "strides": [1], "padding": "same", "data_format": "channels_last", "dilation_rate": [1], "activation": "linear", "use_bias": true, "kernel_initializer": {"class_name": "GlorotUniform", "config": {"seed": null}}, "bias_initializer": {"class_name": "Zeros", "config": {}}, "kernel_regularizer": null, "bias_regularizer": null, "activity_regularizer": null, "kernel_constraint": null, "bias_constraint": null}, "name": "conv1d_2", "inbound_nodes": [[["batch_normalization_1", 0, 0, {}]]]}, {"class_name": "Conv1D", "config": {"name": "conv1d_6", "trainable": true, "dtype": {"class_name": "Policy", "config": {"name": "mixed_float16"}}, "filters": 128, "kernel_size": [3], "strides": [1], "padding": "same", "data_format": "channels_last", "dilation_rate": [1], "activation": "linear", "use_bias": true, "kernel_initializer": {"class_name": "GlorotUniform", "config": {"seed": null}}, "bias_initializer": {"class_name": "Zeros", "config": {}}, "kernel_regularizer": null, "bias_regularizer": null, "activity_regularizer": null, "kernel_constraint": null, "bias_constraint": null}, "name": "conv1d_6", "inbound_nodes": [[["batch_normalization_5", 0, 0, {}]]]}, {"class_name": "Conv1D", "config": {"name": "conv1d_18", "trainable": true, "dtype": {"class_name": "Policy", "config": {"name": "mixed_float16"}}, "filters": 128, "kernel_size": [1], "strides": [1], "padding": "same", "data_format": "channels_last", "dilation_rate": [1], "activation": "linear", "use_bias": true, "kernel_initializer": {"class_name": "GlorotUniform", "config": {"seed": null}}, "bias_initializer": {"class_name": "Zeros", "config": {}}, "kernel_regularizer": null, "bias_regularizer": null, "activity_regularizer": null, "kernel_constraint": null, "bias_constraint": null}, "name": "conv1d_18", "inbound_nodes": [[["lambda_5", 0, 0, {}]]]}, {"class_name": "Conv1D", "config": {"name": "conv1d_20", "trainable": true, "dtype": {"class_name": "Policy", "config": {"name": "mixed_float16"}}, "filters": 128, "kernel_size": [3], "strides": [1], "padding": "same", "data_format": "channels_last", "dilation_rate": [1], "activation": "linear", "use_bias": true, "kernel_initializer": {"class_name": "GlorotUniform", "config": {"seed": null}}, "bias_initializer": {"class_name": "Zeros", "config": {}}, "kernel_regularizer": null, "bias_regularizer": null, "activity_regularizer": null, "kernel_constraint": null, "bias_constraint": null}, "name": "conv1d_20", "inbound_nodes": [[["batch_normalization_19", 0, 0, {}]]]}, {"class_name": "Conv1D", "config": {"name": "conv1d_24", "trainable": true, "dtype": {"class_name": "Policy", "config": {"name": "mixed_float16"}}, "filters": 128, "kernel_size": [3], "strides": [1], "padding": "same", "data_format": "channels_last", "dilation_rate": [1], "activation": "linear", "use_bias": true, "kernel_initializer": {"class_name": "GlorotUniform", "config": {"seed": null}}, "bias_initializer": {"class_name": "Zeros", "config": {}}, "kernel_regularizer": null, "bias_regularizer": null, "activity_regularizer": null, "kernel_constraint": null, "bias_constraint": null}, "name": "conv1d_24", "inbound_nodes": [[["batch_normalization_23", 0, 0, {}]]]}, {"class_name": "Conv1D", "config": {"name": "conv1d_51", "trainable": true, "dtype": {"class_name": "Policy", "config": {"name": "mixed_float16"}}, "filters": 128, "kernel_size": [1], "strides": [1], "padding": "same", "data_format": "channels_last", "dilation_rate": [1], "activation": "linear", "use_bias": true, "kernel_initializer": {"class_name": "GlorotUniform", "config": {"seed": null}}, "bias_initializer": {"class_name": "Zeros", "config": {}}, "kernel_regularizer": null, "bias_regularizer": null, "activity_regularizer": null, "kernel_constraint": null, "bias_constraint": null}, "name": "conv1d_51", "inbound_nodes": [[["lambda_17", 0, 0, {}]]]}, {"class_name": "Conv1D", "config": {"name": "conv1d_53", "trainable": true, "dtype": {"class_name": "Policy", "config": {"name": "mixed_float16"}}, "filters": 128, "kernel_size": [3], "strides": [1], "padding": "same", "data_format": "channels_last", "dilation_rate": [1], "activation": "linear", "use_bias": true, "kernel_initializer": {"class_name": "GlorotUniform", "config": {"seed": null}}, "bias_initializer": {"class_name": "Zeros", "config": {}}, "kernel_regularizer": null, "bias_regularizer": null, "activity_regularizer": null, "kernel_constraint": null, "bias_constraint": null}, "name": "conv1d_53", "inbound_nodes": [[["batch_normalization_52", 0, 0, {}]]]}, {"class_name": "Conv1D", "config": {"name": "conv1d_57", "trainable": true, "dtype": {"class_name": "Policy", "config": {"name": "mixed_float16"}}, "filters": 128, "kernel_size": [3], "strides": [1], "padding": "same", "data_format": "channels_last", "dilation_rate": [1], "activation": "linear", "use_bias": true, "kernel_initializer": {"class_name": "GlorotUniform", "config": {"seed": null}}, "bias_initializer": {"class_name": "Zeros", "config": {}}, "kernel_regularizer": null, "bias_regularizer": null, "activity_regularizer": null, "kernel_constraint": null, "bias_constraint": null}, "name": "conv1d_57", "inbound_nodes": [[["batch_normalization_56", 0, 0, {}]]]}, {"class_name": "Activation", "config": {"name": "activation", "trainable": true, "dtype": {"class_name": "Policy", "config": {"name": "mixed_float16"}}, "activation": {"class_name": "Mish", "config": {"name": "mish", "trainable": true, "dtype": {"class_name": "Policy", "config": {"name": "mixed_float16"}}, "activation": "Addons>mish"}}}, "name": "activation", "inbound_nodes": [[["conv1d", 0, 0, {}]]]}, {"class_name": "Activation", "config": {"name": "activation_2", "trainable": true, "dtype": {"class_name": "Policy", "config": {"name": "mixed_float16"}}, "activation": {"class_name": "Mish", "config": {"name": "mish", "trainable": true, "dtype": {"class_name": "Policy", "config": {"name": "mixed_float16"}}, "activation": "Addons>mish"}}}, "name": "activation_2", "inbound_nodes": [[["conv1d_2", 0, 0, {}]]]}, {"class_name": "Activation", "config": {"name": "activation_6", "trainable": true, "dtype": {"class_name": "Policy", "config": {"name": "mixed_float16"}}, "activation": {"class_name": "Mish", "config": {"name": "mish", "trainable": true, "dtype": {"class_name": "Policy", "config": {"name": "mixed_float16"}}, "activation": "Addons>mish"}}}, "name": "activation_6", "inbound_nodes": [[["conv1d_6", 0, 0, {}]]]}, {"class_name": "Activation", "config": {"name": "activation_22", "trainable": true, "dtype": {"class_name": "Policy", "config": {"name": "mixed_float16"}}, "activation": {"class_name": "Mish", "config": {"name": "mish", "trainable": true, "dtype": {"class_name": "Policy", "config": {"name": "mixed_float16"}}, "activation": "Addons>mish"}}}, "name": "activation_22", "inbound_nodes": [[["conv1d_18", 0, 0, {}]]]}, {"class_name": "Activation", "config": {"name": "activation_24", "trainable": true, "dtype": {"class_name": "Policy", "config": {"name": "mixed_float16"}}, "activation": {"class_name": "Mish", "config": {"name": "mish", "trainable": true, "dtype": {"class_name": "Policy", "config": {"name": "mixed_float16"}}, "activation": "Addons>mish"}}}, "name": "activation_24", "inbound_nodes": [[["conv1d_20", 0, 0, {}]]]}, {"class_name": "Activation", "config": {"name": "activation_28", "trainable": true, "dtype": {"class_name": "Policy", "config": {"name": "mixed_float16"}}, "activation": {"class_name": "Mish", "config": {"name": "mish", "trainable": true, "dtype": {"class_name": "Policy", "config": {"name": "mixed_float16"}}, "activation": "Addons>mish"}}}, "name": "activation_28", "inbound_nodes": [[["conv1d_24", 0, 0, {}]]]}, {"class_name": "Activation", "config": {"name": "activation_66", "trainable": true, "dtype": {"class_name": "Policy", "config": {"name": "mixed_float16"}}, "activation": {"class_name": "Mish", "config": {"name": "mish", "trainable": true, "dtype": {"class_name": "Policy", "config": {"name": "mixed_float16"}}, "activation": "Addons>mish"}}}, "name": "activation_66", "inbound_nodes": [[["conv1d_51", 0, 0, {}]]]}, {"class_name": "Activation", "config": {"name": "activation_68", "trainable": true, "dtype": {"class_name": "Policy", "config": {"name": "mixed_float16"}}, "activation": {"class_name": "Mish", "config": {"name": "mish", "trainable": true, "dtype": {"class_name": "Policy", "config": {"name": "mixed_float16"}}, "activation": "Addons>mish"}}}, "name": "activation_68", "inbound_nodes": [[["conv1d_53", 0, 0, {}]]]}, {"class_name": "Activation", "config": {"name": "activation_72", "trainable": true, "dtype": {"class_name": "Policy", "config": {"name": "mixed_float16"}}, "activation": {"class_name": "Mish", "config": {"name": "mish", "trainable": true, "dtype": {"class_name": "Policy", "config": {"name": "mixed_float16"}}, "activation": "Addons>mish"}}}, "name": "activation_72", "inbound_nodes": [[["conv1d_57", 0, 0, {}]]]}, {"class_name": "Dropout", "config": {"name": "dropout", "trainable": true, "dtype": {"class_name": "Policy", "config": {"name": "mixed_float16"}}, "rate": 0.3, "noise_shape": null, "seed": null}, "name": "dropout", "inbound_nodes": [[["activation", 0, 0, {}]]]}, {"class_name": "Dropout", "config": {"name": "dropout_2", "trainable": true, "dtype": {"class_name": "Policy", "config": {"name": "mixed_float16"}}, "rate": 0.3, "noise_shape": null, "seed": null}, "name": "dropout_2", "inbound_nodes": [[["activation_2", 0, 0, {}]]]}, {"class_name": "Dropout", "config": {"name": "dropout_6", "trainable": true, "dtype": {"class_name": "Policy", "config": {"name": "mixed_float16"}}, "rate": 0.3, "noise_shape": null, "seed": null}, "name": "dropout_6", "inbound_nodes": [[["activation_6", 0, 0, {}]]]}, {"class_name": "Dropout", "config": {"name": "dropout_14", "trainable": true, "dtype": {"class_name": "Policy", "config": {"name": "mixed_float16"}}, "rate": 0.3, "noise_shape": null, "seed": null}, "name": "dropout_14", "inbound_nodes": [[["activation_22", 0, 0, {}]]]}, {"class_name": "Dropout", "config": {"name": "dropout_16", "trainable": true, "dtype": {"class_name": "Policy", "config": {"name": "mixed_float16"}}, "rate": 0.3, "noise_shape": null, "seed": null}, "name": "dropout_16", "inbound_nodes": [[["activation_24", 0, 0, {}]]]}, {"class_name": "Dropout", "config": {"name": "dropout_20", "trainable": true, "dtype": {"class_name": "Policy", "config": {"name": "mixed_float16"}}, "rate": 0.3, "noise_shape": null, "seed": null}, "name": "dropout_20", "inbound_nodes": [[["activation_28", 0, 0, {}]]]}, {"class_name": "Dropout", "config": {"name": "dropout_42", "trainable": true, "dtype": {"class_name": "Policy", "config": {"name": "mixed_float16"}}, "rate": 0.3, "noise_shape": null, "seed": null}, "name": "dropout_42", "inbound_nodes": [[["activation_66", 0, 0, {}]]]}, {"class_name": "Dropout", "config": {"name": "dropout_44", "trainable": true, "dtype": {"class_name": "Policy", "config": {"name": "mixed_float16"}}, "rate": 0.3, "noise_shape": null, "seed": null}, "name": "dropout_44", "inbound_nodes": [[["activation_68", 0, 0, {}]]]}, {"class_name": "Dropout", "config": {"name": "dropout_48", "trainable": true, "dtype": {"class_name": "Policy", "config": {"name": "mixed_float16"}}, "rate": 0.3, "noise_shape": null, "seed": null}, "name": "dropout_48", "inbound_nodes": [[["activation_72", 0, 0, {}]]]}, {"class_name": "BatchNormalization", "config": {"name": "batch_normalization", "trainable": true, "dtype": {"class_name": "Policy", "config": {"name": "mixed_float16"}}, "axis": [2], "momentum": 0.99, "epsilon": 0.001, "center": true, "scale": true, "beta_initializer": {"class_name": "Zeros", "config": {}}, "gamma_initializer": {"class_name": "Ones", "config": {}}, "moving_mean_initializer": {"class_name": "Zeros", "config": {}}, "moving_variance_initializer": {"class_name": "Ones", "config": {}}, "beta_regularizer": null, "gamma_regularizer": null, "beta_constraint": null, "gamma_constraint": null}, "name": "batch_normalization", "inbound_nodes": [[["dropout", 0, 0, {}]]]}, {"class_name": "BatchNormalization", "config": {"name": "batch_normalization_2", "trainable": true, "dtype": {"class_name": "Policy", "config": {"name": "mixed_float16"}}, "axis": [2], "momentum": 0.99, "epsilon": 0.001, "center": true, "scale": true, "beta_initializer": {"class_name": "Zeros", "config": {}}, "gamma_initializer": {"class_name": "Ones", "config": {}}, "moving_mean_initializer": {"class_name": "Zeros", "config": {}}, "moving_variance_initializer": {"class_name": "Ones", "config": {}}, "beta_regularizer": null, "gamma_regularizer": null, "beta_constraint": null, "gamma_constraint": null}, "name": "batch_normalization_2", "inbound_nodes": [[["dropout_2", 0, 0, {}]]]}, {"class_name": "BatchNormalization", "config": {"name": "batch_normalization_6", "trainable": true, "dtype": {"class_name": "Policy", "config": {"name": "mixed_float16"}}, "axis": [2], "momentum": 0.99, "epsilon": 0.001, "center": true, "scale": true, "beta_initializer": {"class_name": "Zeros", "config": {}}, "gamma_initializer": {"class_name": "Ones", "config": {}}, "moving_mean_initializer": {"class_name": "Zeros", "config": {}}, "moving_variance_initializer": {"class_name": "Ones", "config": {}}, "beta_regularizer": null, "gamma_regularizer": null, "beta_constraint": null, "gamma_constraint": null}, "name": "batch_normalization_6", "inbound_nodes": [[["dropout_6", 0, 0, {}]]]}, {"class_name": "BatchNormalization", "config": {"name": "batch_normalization_18", "trainable": true, "dtype": {"class_name": "Policy", "config": {"name": "mixed_float16"}}, "axis": [2], "momentum": 0.99, "epsilon": 0.001, "center": true, "scale": true, "beta_initializer": {"class_name": "Zeros", "config": {}}, "gamma_initializer": {"class_name": "Ones", "config": {}}, "moving_mean_initializer": {"class_name": "Zeros", "config": {}}, "moving_variance_initializer": {"class_name": "Ones", "config": {}}, "beta_regularizer": null, "gamma_regularizer": null, "beta_constraint": null, "gamma_constraint": null}, "name": "batch_normalization_18", "inbound_nodes": [[["dropout_14", 0, 0, {}]]]}, {"class_name": "BatchNormalization", "config": {"name": "batch_normalization_20", "trainable": true, "dtype": {"class_name": "Policy", "config": {"name": "mixed_float16"}}, "axis": [2], "momentum": 0.99, "epsilon": 0.001, "center": true, "scale": true, "beta_initializer": {"class_name": "Zeros", "config": {}}, "gamma_initializer": {"class_name": "Ones", "config": {}}, "moving_mean_initializer": {"class_name": "Zeros", "config": {}}, "moving_variance_initializer": {"class_name": "Ones", "config": {}}, "beta_regularizer": null, "gamma_regularizer": null, "beta_constraint": null, "gamma_constraint": null}, "name": "batch_normalization_20", "inbound_nodes": [[["dropout_16", 0, 0, {}]]]}, {"class_name": "BatchNormalization", "config": {"name": "batch_normalization_24", "trainable": true, "dtype": {"class_name": "Policy", "config": {"name": "mixed_float16"}}, "axis": [2], "momentum": 0.99, "epsilon": 0.001, "center": true, "scale": true, "beta_initializer": {"class_name": "Zeros", "config": {}}, "gamma_initializer": {"class_name": "Ones", "config": {}}, "moving_mean_initializer": {"class_name": "Zeros", "config": {}}, "moving_variance_initializer": {"class_name": "Ones", "config": {}}, "beta_regularizer": null, "gamma_regularizer": null, "beta_constraint": null, "gamma_constraint": null}, "name": "batch_normalization_24", "inbound_nodes": [[["dropout_20", 0, 0, {}]]]}, {"class_name": "BatchNormalization", "config": {"name": "batch_normalization_51", "trainable": true, "dtype": {"class_name": "Policy", "config": {"name": "mixed_float16"}}, "axis": [2], "momentum": 0.99, "epsilon": 0.001, "center": true, "scale": true, "beta_initializer": {"class_name": "Zeros", "config": {}}, "gamma_initializer": {"class_name": "Ones", "config": {}}, "moving_mean_initializer": {"class_name": "Zeros", "config": {}}, "moving_variance_initializer": {"class_name": "Ones", "config": {}}, "beta_regularizer": null, "gamma_regularizer": null, "beta_constraint": null, "gamma_constraint": null}, "name": "batch_normalization_51", "inbound_nodes": [[["dropout_42", 0, 0, {}]]]}, {"class_name": "BatchNormalization", "config": {"name": "batch_normalization_53", "trainable": true, "dtype": {"class_name": "Policy", "config": {"name": "mixed_float16"}}, "axis": [2], "momentum": 0.99, "epsilon": 0.001, "center": true, "scale": true, "beta_initializer": {"class_name": "Zeros", "config": {}}, "gamma_initializer": {"class_name": "Ones", "config": {}}, "moving_mean_initializer": {"class_name": "Zeros", "config": {}}, "moving_variance_initializer": {"class_name": "Ones", "config": {}}, "beta_regularizer": null, "gamma_regularizer": null, "beta_constraint": null, "gamma_constraint": null}, "name": "batch_normalization_53", "inbound_nodes": [[["dropout_44", 0, 0, {}]]]}, {"class_name": "BatchNormalization", "config": {"name": "batch_normalization_57", "trainable": true, "dtype": {"class_name": "Policy", "config": {"name": "mixed_float16"}}, "axis": [2], "momentum": 0.99, "epsilon": 0.001, "center": true, "scale": true, "beta_initializer": {"class_name": "Zeros", "config": {}}, "gamma_initializer": {"class_name": "Ones", "config": {}}, "moving_mean_initializer": {"class_name": "Zeros", "config": {}}, "moving_variance_initializer": {"class_name": "Ones", "config": {}}, "beta_regularizer": null, "gamma_regularizer": null, "beta_constraint": null, "gamma_constraint": null}, "name": "batch_normalization_57", "inbound_nodes": [[["dropout_48", 0, 0, {}]]]}, {"class_name": "Concatenate", "config": {"name": "concatenate", "trainable": true, "dtype": {"class_name": "Policy", "config": {"name": "mixed_float16"}}, "axis": -1}, "name": "concatenate", "inbound_nodes": [[["batch_normalization", 0, 0, {}], ["batch_normalization_2", 0, 0, {}], ["batch_normalization_6", 0, 0, {}]]]}, {"class_name": "Concatenate", "config": {"name": "concatenate_4", "trainable": true, "dtype": {"class_name": "Policy", "config": {"name": "mixed_float16"}}, "axis": -1}, "name": "concatenate_4", "inbound_nodes": [[["batch_normalization_18", 0, 0, {}], ["batch_normalization_20", 0, 0, {}], ["batch_normalization_24", 0, 0, {}]]]}, {"class_name": "Concatenate", "config": {"name": "concatenate_12", "trainable": true, "dtype": {"class_name": "Policy", "config": {"name": "mixed_float16"}}, "axis": -1}, "name": "concatenate_12", "inbound_nodes": [[["batch_normalization_51", 0, 0, {}], ["batch_normalization_53", 0, 0, {}], ["batch_normalization_57", 0, 0, {}]]]}, {"class_name": "BatchNormalization", "config": {"name": "batch_normalization_7", "trainable": true, "dtype": {"class_name": "Policy", "config": {"name": "mixed_float16"}}, "axis": [2], "momentum": 0.99, "epsilon": 0.001, "center": true, "scale": true, "beta_initializer": {"class_name": "Zeros", "config": {}}, "gamma_initializer": {"class_name": "Ones", "config": {}}, "moving_mean_initializer": {"class_name": "Zeros", "config": {}}, "moving_variance_initializer": {"class_name": "Ones", "config": {}}, "beta_regularizer": null, "gamma_regularizer": null, "beta_constraint": null, "gamma_constraint": null}, "name": "batch_normalization_7", "inbound_nodes": [[["concatenate", 0, 0, {}]]]}, {"class_name": "BatchNormalization", "config": {"name": "batch_normalization_25", "trainable": true, "dtype": {"class_name": "Policy", "config": {"name": "mixed_float16"}}, "axis": [2], "momentum": 0.99, "epsilon": 0.001, "center": true, "scale": true, "beta_initializer": {"class_name": "Zeros", "config": {}}, "gamma_initializer": {"class_name": "Ones", "config": {}}, "moving_mean_initializer": {"class_name": "Zeros", "config": {}}, "moving_variance_initializer": {"class_name": "Ones", "config": {}}, "beta_regularizer": null, "gamma_regularizer": null, "beta_constraint": null, "gamma_constraint": null}, "name": "batch_normalization_25", "inbound_nodes": [[["concatenate_4", 0, 0, {}]]]}, {"class_name": "BatchNormalization", "config": {"name": "batch_normalization_58", "trainable": true, "dtype": {"class_name": "Policy", "config": {"name": "mixed_float16"}}, "axis": [2], "momentum": 0.99, "epsilon": 0.001, "center": true, "scale": true, "beta_initializer": {"class_name": "Zeros", "config": {}}, "gamma_initializer": {"class_name": "Ones", "config": {}}, "moving_mean_initializer": {"class_name": "Zeros", "config": {}}, "moving_variance_initializer": {"class_name": "Ones", "config": {}}, "beta_regularizer": null, "gamma_regularizer": null, "beta_constraint": null, "gamma_constraint": null}, "name": "batch_normalization_58", "inbound_nodes": [[["concatenate_12", 0, 0, {}]]]}, {"class_name": "GlobalAveragePooling1D", "config": {"name": "global_average_pooling1d", "trainable": true, "dtype": {"class_name": "Policy", "config": {"name": "mixed_float16"}}, "data_format": "channels_last"}, "name": "global_average_pooling1d", "inbound_nodes": [[["batch_normalization_7", 0, 0, {}]]]}, {"class_name": "GlobalMaxPooling1D", "config": {"name": "global_max_pooling1d", "trainable": true, "dtype": {"class_name": "Policy", "config": {"name": "mixed_float16"}}, "data_format": "channels_last"}, "name": "global_max_pooling1d", "inbound_nodes": [[["batch_normalization_7", 0, 0, {}]]]}, {"class_name": "GlobalAveragePooling1D", "config": {"name": "global_average_pooling1d_2", "trainable": true, "dtype": {"class_name": "Policy", "config": {"name": "mixed_float16"}}, "data_format": "channels_last"}, "name": "global_average_pooling1d_2", "inbound_nodes": [[["batch_normalization_25", 0, 0, {}]]]}, {"class_name": "GlobalMaxPooling1D", "config": {"name": "global_max_pooling1d_2", "trainable": true, "dtype": {"class_name": "Policy", "config": {"name": "mixed_float16"}}, "data_format": "channels_last"}, "name": "global_max_pooling1d_2", "inbound_nodes": [[["batch_normalization_25", 0, 0, {}]]]}, {"class_name": "GlobalAveragePooling1D", "config": {"name": "global_average_pooling1d_6", "trainable": true, "dtype": {"class_name": "Policy", "config": {"name": "mixed_float16"}}, "data_format": "channels_last"}, "name": "global_average_pooling1d_6", "inbound_nodes": [[["batch_normalization_58", 0, 0, {}]]]}, {"class_name": "GlobalMaxPooling1D", "config": {"name": "global_max_pooling1d_6", "trainable": true, "dtype": {"class_name": "Policy", "config": {"name": "mixed_float16"}}, "data_format": "channels_last"}, "name": "global_max_pooling1d_6", "inbound_nodes": [[["batch_normalization_58", 0, 0, {}]]]}, {"class_name": "Reshape", "config": {"name": "reshape", "trainable": true, "dtype": {"class_name": "Policy", "config": {"name": "mixed_float16"}}, "target_shape": [1, 384]}, "name": "reshape", "inbound_nodes": [[["global_average_pooling1d", 0, 0, {}]]]}, {"class_name": "Reshape", "config": {"name": "reshape_1", "trainable": true, "dtype": {"class_name": "Policy", "config": {"name": "mixed_float16"}}, "target_shape": [1, 384]}, "name": "reshape_1", "inbound_nodes": [[["global_max_pooling1d", 0, 0, {}]]]}, {"class_name": "Reshape", "config": {"name": "reshape_4", "trainable": true, "dtype": {"class_name": "Policy", "config": {"name": "mixed_float16"}}, "target_shape": [1, 384]}, "name": "reshape_4", "inbound_nodes": [[["global_average_pooling1d_2", 0, 0, {}]]]}, {"class_name": "Reshape", "config": {"name": "reshape_5", "trainable": true, "dtype": {"class_name": "Policy", "config": {"name": "mixed_float16"}}, "target_shape": [1, 384]}, "name": "reshape_5", "inbound_nodes": [[["global_max_pooling1d_2", 0, 0, {}]]]}, {"class_name": "Reshape", "config": {"name": "reshape_12", "trainable": true, "dtype": {"class_name": "Policy", "config": {"name": "mixed_float16"}}, "target_shape": [1, 384]}, "name": "reshape_12", "inbound_nodes": [[["global_average_pooling1d_6", 0, 0, {}]]]}, {"class_name": "Reshape", "config": {"name": "reshape_13", "trainable": true, "dtype": {"class_name": "Policy", "config": {"name": "mixed_float16"}}, "target_shape": [1, 384]}, "name": "reshape_13", "inbound_nodes": [[["global_max_pooling1d_6", 0, 0, {}]]]}, {"class_name": "Dense", "config": {"name": "dense", "trainable": true, "dtype": {"class_name": "Policy", "config": {"name": "mixed_float16"}}, "units": 48, "activation": "linear", "use_bias": true, "kernel_initializer": {"class_name": "VarianceScaling", "config": {"scale": 2.0, "mode": "fan_in", "distribution": "truncated_normal", "seed": null}}, "bias_initializer": {"class_name": "Zeros", "config": {}}, "kernel_regularizer": null, "bias_regularizer": null, "activity_regularizer": null, "kernel_constraint": null, "bias_constraint": null}, "name": "dense", "inbound_nodes": [[["reshape", 0, 0, {}]], [["reshape_1", 0, 0, {}]]]}, {"class_name": "Dense", "config": {"name": "dense_4", "trainable": true, "dtype": {"class_name": "Policy", "config": {"name": "mixed_float16"}}, "units": 48, "activation": "linear", "use_bias": true, "kernel_initializer": {"class_name": "VarianceScaling", "config": {"scale": 2.0, "mode": "fan_in", "distribution": "truncated_normal", "seed": null}}, "bias_initializer": {"class_name": "Zeros", "config": {}}, "kernel_regularizer": null, "bias_regularizer": null, "activity_regularizer": null, "kernel_constraint": null, "bias_constraint": null}, "name": "dense_4", "inbound_nodes": [[["reshape_4", 0, 0, {}]], [["reshape_5", 0, 0, {}]]]}, {"class_name": "Dense", "config": {"name": "dense_12", "trainable": true, "dtype": {"class_name": "Policy", "config": {"name": "mixed_float16"}}, "units": 48, "activation": "linear", "use_bias": true, "kernel_initializer": {"class_name": "VarianceScaling", "config": {"scale": 2.0, "mode": "fan_in", "distribution": "truncated_normal", "seed": null}}, "bias_initializer": {"class_name": "Zeros", "config": {}}, "kernel_regularizer": null, "bias_regularizer": null, "activity_regularizer": null, "kernel_constraint": null, "bias_constraint": null}, "name": "dense_12", "inbound_nodes": [[["reshape_12", 0, 0, {}]], [["reshape_13", 0, 0, {}]]]}, {"class_name": "Activation", "config": {"name": "activation_7", "trainable": true, "dtype": {"class_name": "Policy", "config": {"name": "mixed_float16"}}, "activation": "relu"}, "name": "activation_7", "inbound_nodes": [[["dense", 0, 0, {}]], [["dense", 1, 0, {}]]]}, {"class_name": "Activation", "config": {"name": "activation_29", "trainable": true, "dtype": {"class_name": "Policy", "config": {"name": "mixed_float16"}}, "activation": "relu"}, "name": "activation_29", "inbound_nodes": [[["dense_4", 0, 0, {}]], [["dense_4", 1, 0, {}]]]}, {"class_name": "Activation", "config": {"name": "activation_73", "trainable": true, "dtype": {"class_name": "Policy", "config": {"name": "mixed_float16"}}, "activation": "relu"}, "name": "activation_73", "inbound_nodes": [[["dense_12", 0, 0, {}]], [["dense_12", 1, 0, {}]]]}, {"class_name": "Dense", "config": {"name": "dense_1", "trainable": true, "dtype": {"class_name": "Policy", "config": {"name": "mixed_float16"}}, "units": 384, "activation": "linear", "use_bias": true, "kernel_initializer": {"class_name": "VarianceScaling", "config": {"scale": 2.0, "mode": "fan_in", "distribution": "truncated_normal", "seed": null}}, "bias_initializer": {"class_name": "Zeros", "config": {}}, "kernel_regularizer": null, "bias_regularizer": null, "activity_regularizer": null, "kernel_constraint": null, "bias_constraint": null}, "name": "dense_1", "inbound_nodes": [[["activation_7", 0, 0, {}]], [["activation_7", 1, 0, {}]]]}, {"class_name": "Dense", "config": {"name": "dense_5", "trainable": true, "dtype": {"class_name": "Policy", "config": {"name": "mixed_float16"}}, "units": 384, "activation": "linear", "use_bias": true, "kernel_initializer": {"class_name": "VarianceScaling", "config": {"scale": 2.0, "mode": "fan_in", "distribution": "truncated_normal", "seed": null}}, "bias_initializer": {"class_name": "Zeros", "config": {}}, "kernel_regularizer": null, "bias_regularizer": null, "activity_regularizer": null, "kernel_constraint": null, "bias_constraint": null}, "name": "dense_5", "inbound_nodes": [[["activation_29", 0, 0, {}]], [["activation_29", 1, 0, {}]]]}, {"class_name": "Dense", "config": {"name": "dense_13", "trainable": true, "dtype": {"class_name": "Policy", "config": {"name": "mixed_float16"}}, "units": 384, "activation": "linear", "use_bias": true, "kernel_initializer": {"class_name": "VarianceScaling", "config": {"scale": 2.0, "mode": "fan_in", "distribution": "truncated_normal", "seed": null}}, "bias_initializer": {"class_name": "Zeros", "config": {}}, "kernel_regularizer": null, "bias_regularizer": null, "activity_regularizer": null, "kernel_constraint": null, "bias_constraint": null}, "name": "dense_13", "inbound_nodes": [[["activation_73", 0, 0, {}]], [["activation_73", 1, 0, {}]]]}, {"class_name": "Activation", "config": {"name": "activation_8", "trainable": true, "dtype": {"class_name": "Policy", "config": {"name": "mixed_float16"}}, "activation": "sigmoid"}, "name": "activation_8", "inbound_nodes": [[["dense_1", 0, 0, {}]], [["dense_1", 1, 0, {}]]]}, {"class_name": "Activation", "config": {"name": "activation_30", "trainable": true, "dtype": {"class_name": "Policy", "config": {"name": "mixed_float16"}}, "activation": "sigmoid"}, "name": "activation_30", "inbound_nodes": [[["dense_5", 0, 0, {}]], [["dense_5", 1, 0, {}]]]}, {"class_name": "Activation", "config": {"name": "activation_74", "trainable": true, "dtype": {"class_name": "Policy", "config": {"name": "mixed_float16"}}, "activation": "sigmoid"}, "name": "activation_74", "inbound_nodes": [[["dense_13", 0, 0, {}]], [["dense_13", 1, 0, {}]]]}, {"class_name": "Add", "config": {"name": "add", "trainable": true, "dtype": {"class_name": "Policy", "config": {"name": "mixed_float16"}}}, "name": "add", "inbound_nodes": [[["activation_8", 0, 0, {}], ["activation_8", 1, 0, {}]]]}, {"class_name": "Add", "config": {"name": "add_2", "trainable": true, "dtype": {"class_name": "Policy", "config": {"name": "mixed_float16"}}}, "name": "add_2", "inbound_nodes": [[["activation_30", 0, 0, {}], ["activation_30", 1, 0, {}]]]}, {"class_name": "Add", "config": {"name": "add_6", "trainable": true, "dtype": {"class_name": "Policy", "config": {"name": "mixed_float16"}}}, "name": "add_6", "inbound_nodes": [[["activation_74", 0, 0, {}], ["activation_74", 1, 0, {}]]]}, {"class_name": "Activation", "config": {"name": "activation_9", "trainable": true, "dtype": {"class_name": "Policy", "config": {"name": "mixed_float16"}}, "activation": "sigmoid"}, "name": "activation_9", "inbound_nodes": [[["add", 0, 0, {}]]]}, {"class_name": "Activation", "config": {"name": "activation_31", "trainable": true, "dtype": {"class_name": "Policy", "config": {"name": "mixed_float16"}}, "activation": "sigmoid"}, "name": "activation_31", "inbound_nodes": [[["add_2", 0, 0, {}]]]}, {"class_name": "Activation", "config": {"name": "activation_75", "trainable": true, "dtype": {"class_name": "Policy", "config": {"name": "mixed_float16"}}, "activation": "sigmoid"}, "name": "activation_75", "inbound_nodes": [[["add_6", 0, 0, {}]]]}, {"class_name": "Multiply", "config": {"name": "multiply", "trainable": true, "dtype": {"class_name": "Policy", "config": {"name": "mixed_float16"}}}, "name": "multiply", "inbound_nodes": [[["batch_normalization_7", 0, 0, {}], ["activation_9", 0, 0, {}]]]}, {"class_name": "Multiply", "config": {"name": "multiply_4", "trainab…
_113", 0, 0, {}]]]}, {"class_name": "Conv1D", "config": {"name": "conv1d_119", "trainable": true, "dtype": {"class_name": "Policy", "config": {"name": "mixed_float16"}}, "filters": 128, "kernel_size": [3], "strides": [1], "padding": "same", "data_format": "channels_last", "dilation_rate": [1], "activation": "linear", "use_bias": true, "kernel_initializer": {"class_name": "GlorotUniform", "config": {"seed": null}}, "bias_initializer": {"class_name": "Zeros", "config": {}}, "kernel_regularizer": null, "bias_regularizer": null, "activity_regularizer": null, "kernel_constraint": null, "bias_constraint": null}, "name": "conv1d_119", "inbound_nodes": [[["batch_normalization_117", 0, 0, {}]]]}, {"class_name": "Activation", "config": {"name": "activation_81", "trainable": true, "dtype": {"class_name": "Policy", "config": {"name": "mixed_float16"}}, "activation": {"class_name": "Mish", "config": {"name": "mish", "trainable": true, "dtype": {"class_name": "Policy", "config": {"name": "mixed_float16"}}, "activation": "Addons>mish"}}}, "name": "activation_81", "inbound_nodes": [[["conv1d_62", 0, 0, {}]]]}, {"class_name": "Activation", "config": {"name": "activation_83", "trainable": true, "dtype": {"class_name": "Policy", "config": {"name": "mixed_float16"}}, "activation": {"class_name": "Mish", "config": {"name": "mish", "trainable": true, "dtype": {"class_name": "Policy", "config": {"name": "mixed_float16"}}, "activation": "Addons>mish"}}}, "name": "activation_83", "inbound_nodes": [[["conv1d_64", 0, 0, {}]]]}, {"class_name": "Activation", "config": {"name": "activation_87", "trainable": true, "dtype": {"class_name": "Policy", "config": {"name": "mixed_float16"}}, "activation": {"class_name": "Mish", "config": {"name": "mish", "trainable": true, "dtype": {"class_name": "Policy", "config": {"name": "mixed_float16"}}, "activation": "Addons>mish"}}}, "name": "activation_87", "inbound_nodes": [[["conv1d_68", 0, 0, {}]]]}, {"class_name": "Activation", "config": {"name": "activation_103", "trainable": true, "dtype": {"class_name": "Policy", "config": {"name": "mixed_float16"}}, "activation": {"class_name": "Mish", "config": {"name": "mish", "trainable": true, "dtype": {"class_name": "Policy", "config": {"name": "mixed_float16"}}, "activation": "Addons>mish"}}}, "name": "activation_103", "inbound_nodes": [[["conv1d_80", 0, 0, {}]]]}, {"class_name": "Activation", "config": {"name": "activation_105", "trainable": true, "dtype": {"class_name": "Policy", "config": {"name": "mixed_float16"}}, "activation": {"class_name": "Mish", "config": {"name": "mish", "trainable": true, "dtype": {"class_name": "Policy", "config": {"name": "mixed_float16"}}, "activation": "Addons>mish"}}}, "name": "activation_105", "inbound_nodes": [[["conv1d_82", 0, 0, {}]]]}, {"class_name": "Activation", "config": {"name": "activation_109", "trainable": true, "dtype": {"class_name": "Policy", "config": {"name": "mixed_float16"}}, "activation": {"class_name": "Mish", "config": {"name": "mish", "trainable": true, "dtype": {"class_name": "Policy", "config": {"name": "mixed_float16"}}, "activation": "Addons>mish"}}}, "name": "activation_109", "inbound_nodes": [[["conv1d_86", 0, 0, {}]]]}, {"class_name": "Activation", "config": {"name": "activation_147", "trainable": true, "dtype": {"class_name": "Policy", "config": {"name": "mixed_float16"}}, "activation": {"class_name": "Mish", "config": {"name": "mish", "trainable": true, "dtype": {"class_name": "Policy", "config": {"name": "mixed_float16"}}, "activation": "Addons>mish"}}}, "name": "activation_147", "inbound_nodes": [[["conv1d_113", 0, 0, {}]]]}, {"class_name": "Activation", "config": {"name": "activation_149", "trainable": true, "dtype": {"class_name": "Policy", "config": {"name": "mixed_float16"}}, "activation": {"class_name": "Mish", "config": {"name": "mish", "trainable": true, "dtype": {"class_name": "Policy", "config": {"name": "mixed_float16"}}, "activation": "Addons>mish"}}}, "name": "activation_149", "inbound_nodes": [[["conv1d_115", 0, 0, {}]]]}, {"class_name": "Activation", "config": {"name": "activation_153", "trainable": true, "dtype": {"class_name": "Policy", "config": {"name": "mixed_float16"}}, "activation": {"class_name": "Mish", "config": {"name": "mish", "trainable": true, "dtype": {"class_name": "Policy", "config": {"name": "mixed_float16"}}, "activation": "Addons>mish"}}}, "name": "activation_153", "inbound_nodes": [[["conv1d_119", 0, 0, {}]]]}, {"class_name": "Dropout", "config": {"name": "dropout_49", "trainable": true, "dtype": {"class_name": "Policy", "config": {"name": "mixed_float16"}}, "rate": 0.3, "noise_shape": null, "seed": null}, "name": "dropout_49", "inbound_nodes": [[["activation_81", 0, 0, {}]]]}, {"class_name": "Dropout", "config": {"name": "dropout_51", "trainable": true, "dtype": {"class_name": "Policy", "config": {"name": "mixed_float16"}}, "rate": 0.3, "noise_shape": null, "seed": null}, "name": "dropout_51", "inbound_nodes": [[["activation_83", 0, 0, {}]]]}, {"class_name": "Dropout", "config": {"name": "dropout_55", "trainable": true, "dtype": {"class_name": "Policy", "config": {"name": "mixed_float16"}}, "rate": 0.3, "noise_shape": null, "seed": null}, "name": "dropout_55", "inbound_nodes": [[["activation_87", 0, 0, {}]]]}, {"class_name": "Dropout", "config": {"name": "dropout_63", "trainable": true, "dtype": {"class_name": "Policy", "config": {"name": "mixed_float16"}}, "rate": 0.3, "noise_shape": null, "seed": null}, "name": "dropout_63", "inbound_nodes": [[["activation_103", 0, 0, {}]]]}, {"class_name": "Dropout", "config": {"name": "dropout_65", "trainable": true, "dtype": {"class_name": "Policy", "config": {"name": "mixed_float16"}}, "rate": 0.3, "noise_shape": null, "seed": null}, "name": "dropout_65", "inbound_nodes": [[["activation_105", 0, 0, {}]]]}, {"class_name": "Dropout", "config": {"name": "dropout_69", "trainable": true, "dtype": {"class_name": "Policy", "config": {"name": "mixed_float16"}}, "rate": 0.3, "noise_shape": null, "seed": null}, "name": "dropout_69", "inbound_nodes": [[["activation_109", 0, 0, {}]]]}, {"class_name": "Dropout", "config": {"name": "dropout_91", "trainable": true, "dtype": {"class_name": "Policy", "config": {"name": "mixed_float16"}}, "rate": 0.3, "noise_shape": null, "seed": null}, "name": "dropout_91", "inbound_nodes": [[["activation_147", 0, 0, {}]]]}, {"class_name": "Dropout", "config": {"name": "dropout_93", "trainable": true, "dtype": {"class_name": "Policy", "config": {"name": "mixed_float16"}}, "rate": 0.3, "noise_shape": null, "seed": null}, "name": "dropout_93", "inbound_nodes": [[["activation_149", 0, 0, {}]]]}, {"class_name": "Dropout", "config": {"name": "dropout_97", "trainable": true, "dtype": {"class_name": "Policy", "config": {"name": "mixed_float16"}}, "rate": 0.3, "noise_shape": null, "seed": null}, "name": "dropout_97", "inbound_nodes": [[["activation_153", 0, 0, {}]]]}, {"class_name": "BatchNormalization", "config": {"name": "batch_normalization_61", "trainable": true, "dtype": {"class_name": "Policy", "config": {"name": "mixed_float16"}}, "axis": [2], "momentum": 0.99, "epsilon": 0.001, "center": true, "scale": true, "beta_initializer": {"class_name": "Zeros", "config": {}}, "gamma_initializer": {"class_name": "Ones", "config": {}}, "moving_mean_initializer": {"class_name": "Zeros", "config": {}}, "moving_variance_initializer": {"class_name": "Ones", "config": {}}, "beta_regularizer": null, "gamma_regularizer": null, "beta_constraint": null, "gamma_constraint": null}, "name": "batch_normalization_61", "inbound_nodes": [[["dropout_49", 0, 0, {}]]]}, {"class_name": "BatchNormalization", "config": {"name": "batch_normalization_63", "trainable": true, "dtype": {"class_name": "Policy", "config": {"name": "mixed_float16"}}, "axis": [2], "momentum": 0.99, "epsilon": 0.001, "center": true, "scale": true, "beta_initializer": {"class_name": "Zeros", "config": {}}, "gamma_initializer": {"class_name": "Ones", "config": {}}, "moving_mean_initializer": {"class_name": "Zeros", "config": {}}, "moving_variance_initializer": {"class_name": "Ones", "config": {}}, "beta_regularizer": null, "gamma_regularizer": null, "beta_constraint": null, "gamma_constraint": null}, "name": "batch_normalization_63", "inbound_nodes": [[["dropout_51", 0, 0, {}]]]}, {"class_name": "BatchNormalization", "config": {"name": "batch_normalization_67", "trainable": true, "dtype": {"class_name": "Policy", "config": {"name": "mixed_float16"}}, "axis": [2], "momentum": 0.99, "epsilon": 0.001, "center": true, "scale": true, "beta_initializer": {"class_name": "Zeros", "config": {}}, "gamma_initializer": {"class_name": "Ones", "config": {}}, "moving_mean_initializer": {"class_name": "Zeros", "config": {}}, "moving_variance_initializer": {"class_name": "Ones", "config": {}}, "beta_regularizer": null, "gamma_regularizer": null, "beta_constraint": null, "gamma_constraint": null}, "name": "batch_normalization_67", "inbound_nodes": [[["dropout_55", 0, 0, {}]]]}, {"class_name": "BatchNormalization", "config": {"name": "batch_normalization_79", "trainable": true, "dtype": {"class_name": "Policy", "config": {"name": "mixed_float16"}}, "axis": [2], "momentum": 0.99, "epsilon": 0.001, "center": true, "scale": true, "beta_initializer": {"class_name": "Zeros", "config": {}}, "gamma_initializer": {"class_name": "Ones", "config": {}}, "moving_mean_initializer": {"class_name": "Zeros", "config": {}}, "moving_variance_initializer": {"class_name": "Ones", "config": {}}, "beta_regularizer": null, "gamma_regularizer": null, "beta_constraint": null, "gamma_constraint": null}, "name": "batch_normalization_79", "inbound_nodes": [[["dropout_63", 0, 0, {}]]]}, {"class_name": "BatchNormalization", "config": {"name": "batch_normalization_81", "trainable": true, "dtype": {"class_name": "Policy", "config": {"name": "mixed_float16"}}, "axis": [2], "momentum": 0.99, "epsilon": 0.001, "center": true, "scale": true, "beta_initializer": {"class_name": "Zeros", "config": {}}, "gamma_initializer": {"class_name": "Ones", "config": {}}, "moving_mean_initializer": {"class_name": "Zeros", "config": {}}, "moving_variance_initializer": {"class_name": "Ones", "config": {}}, "beta_regularizer": null, "gamma_regularizer": null, "beta_constraint": null, "gamma_constraint": null}, "name": "batch_normalization_81", "inbound_nodes": [[["dropout_65", 0, 0, {}]]]}, {"class_name": "BatchNormalization", "config": {"name": "batch_normalization_85", "trainable": true, "dtype": {"class_name": "Policy", "config": {"name": "mixed_float16"}}, "axis": [2], "momentum": 0.99, "epsilon": 0.001, "center": true, "scale": true, "beta_initializer": {"class_name": "Zeros", "config": {}}, "gamma_initializer": {"class_name": "Ones", "config": {}}, "moving_mean_initializer": {"class_name": "Zeros", "config": {}}, "moving_variance_initializer": {"class_name": "Ones", "config": {}}, "beta_regularizer": null, "gamma_regularizer": null, "beta_constraint": null, "gamma_constraint": null}, "name": "batch_normalization_85", "inbound_nodes": [[["dropout_69", 0, 0, {}]]]}, {"class_name": "BatchNormalization", "config": {"name": "batch_normalization_112", "trainable": true, "dtype": {"class_name": "Policy", "config": {"name": "mixed_float16"}}, "axis": [2], "momentum": 0.99, "epsilon": 0.001, "center": true, "scale": true, "beta_initializer": {"class_name": "Zeros", "config": {}}, "gamma_initializer": {"class_name": "Ones", "config": {}}, "moving_mean_initializer": {"class_name": "Zeros", "config": {}}, "moving_variance_initializer": {"class_name": "Ones", "config": {}}, "beta_regularizer": null, "gamma_regularizer": null, "beta_constraint": null, "gamma_constraint": null}, "name": "batch_normalization_112", "inbound_nodes": [[["dropout_91", 0, 0, {}]]]}, {"class_name": "BatchNormalization", "config": {"name": "batch_normalization_114", "trainable": true, "dtype": {"class_name": "Policy", "config": {"name": "mixed_float16"}}, "axis": [2], "momentum": 0.99, "epsilon": 0.001, "center": true, "scale": true, "beta_initializer": {"class_name": "Zeros", "config": {}}, "gamma_initializer": {"class_name": "Ones", "config": {}}, "moving_mean_initializer": {"class_name": "Zeros", "config": {}}, "moving_variance_initializer": {"class_name": "Ones", "config": {}}, "beta_regularizer": null, "gamma_regularizer": null, "beta_constraint": null, "gamma_constraint": null}, "name": "batch_normalization_114", "inbound_nodes": [[["dropout_93", 0, 0, {}]]]}, {"class_name": "BatchNormalization", "config": {"name": "batch_normalization_118", "trainable": true, "dtype": {"class_name": "Policy", "config": {"name": "mixed_float16"}}, "axis": [2], "momentum": 0.99, "epsilon": 0.001, "center": true, "scale": true, "beta_initializer": {"class_name": "Zeros", "config": {}}, "gamma_initializer": {"class_name": "Ones", "config": {}}, "moving_mean_initializer": {"class_name": "Zeros", "config": {}}, "moving_variance_initializer": {"class_name": "Ones", "config": {}}, "beta_regularizer": null, "gamma_regularizer": null, "beta_constraint": null, "gamma_constraint": null}, "name": "batch_normalization_118", "inbound_nodes": [[["dropout_97", 0, 0, {}]]]}, {"class_name": "Concatenate", "config": {"name": "concatenate_16", "trainable": true, "dtype": {"class_name": "Policy", "config": {"name": "mixed_float16"}}, "axis": -1}, "name": "concatenate_16", "inbound_nodes": [[["batch_normalization_61", 0, 0, {}], ["batch_normalization_63", 0, 0, {}], ["batch_normalization_67", 0, 0, {}]]]}, {"class_name": "Concatenate", "config": {"name": "concatenate_20", "trainable": true, "dtype": {"class_name": "Policy", "config": {"name": "mixed_float16"}}, "axis": -1}, "name": "concatenate_20", "inbound_nodes": [[["batch_normalization_79", 0, 0, {}], ["batch_normalization_81", 0, 0, {}], ["batch_normalization_85", 0, 0, {}]]]}, {"class_name": "Concatenate", "config": {"name": "concatenate_28", "trainable": true, "dtype": {"class_name": "Policy", "config": {"name": "mixed_float16"}}, "axis": -1}, "name": "concatenate_28", "inbound_nodes": [[["batch_normalization_112", 0, 0, {}], ["batch_normalization_114", 0, 0, {}], ["batch_normalization_118", 0, 0, {}]]]}, {"class_name": "BatchNormalization", "config": {"name": "batch_normalization_68", "trainable": true, "dtype": {"class_name": "Policy", "config": {"name": "mixed_float16"}}, "axis": [2], "momentum": 0.99, "epsilon": 0.001, "center": true, "scale": true, "beta_initializer": {"class_name": "Zeros", "config": {}}, "gamma_initializer": {"class_name": "Ones", "config": {}}, "moving_mean_initializer": {"class_name": "Zeros", "config": {}}, "moving_variance_initializer": {"class_name": "Ones", "config": {}}, "beta_regularizer": null, "gamma_regularizer": null, "beta_constraint": null, "gamma_constraint": null}, "name": "batch_normalization_68", "inbound_nodes": [[["concatenate_16", 0, 0, {}]]]}, {"class_name": "BatchNormalization", "config": {"name": "batch_normalization_86", "trainable": true, "dtype": {"class_name": "Policy", "config": {"name": "mixed_float16"}}, "axis": [2], "momentum": 0.99, "epsilon": 0.001, "center": true, "scale": true, "beta_initializer": {"class_name": "Zeros", "config": {}}, "gamma_initializer": {"class_name": "Ones", "config": {}}, "moving_mean_initializer": {"class_name": "Zeros", "config": {}}, "moving_variance_initializer": {"class_name": "Ones", "config": {}}, "beta_regularizer": null, "gamma_regularizer": null, "beta_constraint": null, "gamma_constraint": null}, "name": "batch_normalization_86", "inbound_nodes": [[["concatenate_20", 0, 0, {}]]]}, {"class_name": "BatchNormalization", "config": {"name": "batch_normalization_119", "trainable": true, "dtype": {"class_name": "Policy", "config": {"name": "mixed_float16"}}, "axis": [2], "momentum": 0.99, "epsilon": 0.001, "center": true, "scale": true, "beta_initializer": {"class_name": "Zeros", "config": {}}, "gamma_initializer": {"class_name": "Ones", "config": {}}, "moving_mean_initializer": {"class_name": "Zeros", "config": {}}, "moving_variance_initializer": {"class_name": "Ones", "config": {}}, "beta_regularizer": null, "gamma_regularizer": null, "beta_constraint": null, "gamma_constraint": null}, "name": "batch_normalization_119", "inbound_nodes": [[["concatenate_28", 0, 0, {}]]]}, {"class_name": "GlobalAveragePooling1D", "config": {"name": "global_average_pooling1d_8", "trainable": true, "dtype": {"class_name": "Policy", "config": {"name": "mixed_float16"}}, "data_format": "channels_last"}, "name": "global_average_pooling1d_8", "inbound_nodes": [[["batch_normalization_68", 0, 0, {}]]]}, {"class_name": "GlobalMaxPooling1D", "config": {"name": "global_max_pooling1d_8", "trainable": true, "dtype": {"class_name": "Policy", "config": {"name": "mixed_float16"}}, "data_format": "channels_last"}, "name": "global_max_pooling1d_8", "inbound_nodes": [[["batch_normalization_68", 0, 0, {}]]]}, {"class_name": "GlobalAveragePooling1D", "config": {"name": "global_average_pooling1d_10", "trainable": true, "dtype": {"class_name": "Policy", "config": {"name": "mixed_float16"}}, "data_format": "channels_last"}, "name": "global_average_pooling1d_10", "inbound_nodes": [[["batch_normalization_86", 0, 0, {}]]]}, {"class_name": "GlobalMaxPooling1D", "config": {"name": "global_max_pooling1d_10", "trainable": true, "dtype": {"class_name": "Policy", "config": {"name": "mixed_float16"}}, "data_format": "channels_last"}, "name": "global_max_pooling1d_10", "inbound_nodes": [[["batch_normalization_86", 0, 0, {}]]]}, {"class_name": "GlobalAveragePooling1D", "config": {"name": "global_average_pooling1d_14", "trainable": true, "dtype": {"class_name": "Policy", "config": {"name": "mixed_float16"}}, "data_format": "channels_last"}, "name": "global_average_pooling1d_14", "inbound_nodes": [[["batch_normalization_119", 0, 0, {}]]]}, {"class_name": "GlobalMaxPooling1D", "config": {"name": "global_max_pooling1d_14", "trainable": true, "dtype": {"class_name": "Policy", "config": {"name": "mixed_float16"}}, "data_format": "channels_last"}, "name": "global_max_pooling1d_14", "inbound_nodes": [[["batch_normalization_119", 0, 0, {}]]]}, {"class_name": "Reshape", "config": {"name": "reshape_16", "trainable": true, "dtype": {"class_name": "Policy", "config": {"name": "mixed_float16"}}, "target_shape": [1, 384]}, "name": "reshape_16", "inbound_nodes": [[["global_average_pooling1d_8", 0, 0, {}]]]}, {"class_name": "Reshape", "config": {"name": "reshape_17", "trainable": true, "dtype": {"class_name": "Policy", "config": {"name": "mixed_float16"}}, "target_shape": [1, 384]}, "name": "reshape_17", "inbound_nodes": [[["global_max_pooling1d_8", 0, 0, {}]]]}, {"class_name": "Reshape", "config": {"name": "reshape_20", "trainable": true, "dtype": {"class_name": "Policy", "config": {"name": "mixed_float16"}}, "target_shape": [1, 384]}, "name": "reshape_20", "inbound_nodes": [[["global_average_pooling1d_10", 0, 0, {}]]]}, {"class_name": "Reshape", "config": {"name": "reshape_21", "trainable": true, "dtype": {"class_name": "Policy", "config": {"name": "mixed_float16"}}, "target_shape": [1, 384]}, "name": "reshape_21", "inbound_nodes": [[["global_max_pooling1d_10", 0, 0, {}]]]}, {"class_name": "Reshape", "config": {"name": "reshape_28", "trainable": true, "dtype": {"class_name": "Policy", "config": {"name": "mixed_float16"}}, "target_shape": [1, 384]}, "name": "reshape_28", "inbound_nodes": [[["global_average_pooling1d_14", 0, 0, {}]]]}, {"class_name": "Reshape", "config": {"name": "reshape_29", "trainable": true, "dtype": {"class_name": "Policy", "config": {"name": "mixed_float16"}}, "target_shape": [1, 384]}, "name": "reshape_29", "inbound_nodes": [[["global_max_pooling1d_14", 0, 0, {}]]]}, {"class_name": "Dense", "config": {"name": "dense_16", "trainable": true, "dtype": {"class_name": "Policy", "config": {"name": "mixed_float16"}}, "units": 48, "activation": "linear", "use_bias": true, "kernel_initializer": {"class_name": "VarianceScaling", "config": {"scale": 2.0, "mode": "fan_in", "distribution": "truncated_normal", "seed": null}}, "bias_initializer": {"class_name": "Zeros", "config": {}}, "kernel_regularizer": null, "bias_regularizer": null, "activity_regularizer": null, "kernel_constraint": null, "bias_constraint": null}, "name": "dense_16", "inbound_nodes": [[["reshape_16", 0, 0, {}]], [["reshape_17", 0, 0, {}]]]}, {"class_name": "Dense", "config": {"name": "dense_20", "trainable": true, "dtype": {"class_name": "Policy", "config": {"name": "mixed_float16"}}, "units": 48, "activation": "linear", "use_bias": true, "kernel_initializer": {"class_name": "VarianceScaling", "config": {"scale": 2.0, "mode": "fan_in", "distribution": "truncated_normal", "seed": null}}, "bias_initializer": {"class_name": "Zeros", "config": {}}, "kernel_regularizer": null, "bias_regularizer": null, "activity_regularizer": null, "kernel_constraint": null, "bias_constraint": null}, "name": "dense_20", "inbound_nodes": [[["reshape_20", 0, 0, {}]], [["reshape_21", 0, 0, {}]]]}, {"class_name": "Dense", "config": {"name": "dense_28", "trainable": true, "dtype": {"class_name": "Policy", "config": {"name": "mixed_float16"}}, "units": 48, "activation": "linear", "use_bias": true, "kernel_initializer": {"class_name": "VarianceScaling", "config": {"scale": 2.0, "mode": "fan_in", "distribution": "truncated_normal", "seed": null}}, "bias_initializer": {"class_name": "Zeros", "config": {}}, "kernel_regularizer": null, "bias_regularizer": null, "activity_regularizer": null, "kernel_constraint": null, "bias_constraint": null}, "name": "dense_28", "inbound_nodes": [[["reshape_28", 0, 0, {}]], [["reshape_29", 0, 0, {}]]]}, {"class_name": "Activation", "config": {"name": "activation_88", "trainable": true, "dtype": {"class_name": "Policy", "config": {"name": "mixed_float16"}}, "activation": "relu"}, "name": "activation_88", "inbound_nodes": [[["dense_16", 0, 0, {}]], [["dense_16", 1, 0, {}]]]}, {"class_name": "Activation", "config": {"name": "activation_110", "trainable": true, "dtype": {"class_name": "Policy", "config": {"name": "mixed_float16"}}, "activation": "relu"}, "name": "activation_110", "inbound_nodes": [[["dense_20", 0, 0, {}]], [["dense_20", 1, 0, {}]]]}, {"class_name": "Activation", "config": {"name": "activation_154", "trainable": true, "dtype": {"class_name": "Policy", "config": {"name": "mixed_float16"}}, "activation": "relu"}, "name": "activation_154", "inbound_nodes": [[["dense_28", 0, 0, {}]], [["dense_28", 1, 0, {}]]]}, {"class_name": "Dense", "config": {"name": "dense_17", "trainable": true, "dtype": {"class_name": "Policy", "config": {"name": "mixed_float16"}}, "units": 384, "activation": "linear", "use_bias": true, "kernel_initializer": {"class_name": "VarianceScaling", "config": {"scale": 2.0, "mode": "fan_in", "distribution": "truncated_normal", "seed": null}}, "bias_initializer": {"class_name": "Zeros", "config": {}}, "kernel_regularizer": null, "bias_regularizer": null, "activity_regularizer": null, "kernel_constraint": null, "bias_constraint": null}, "name": "dense_17", "inbound_nodes": [[["activation_88", 0, 0, {}]], [["activation_88", 1, 0, {}]]]}, {"class_name": "Dense", "config": {"name": "dense_21", "trainable": true, "dtype": {"class_name": "Policy", "config": {"name": "mixed_float16"}}, "units": 384, "activation": "linear", "use_bias": true, "kernel_initializer": {"class_name": "VarianceScaling", "config": {"scale": 2.0, "mode": "fan_in", "distribution": "truncated_normal", "seed": null}}, "bias_initializer": {"class_name": "Zeros", "config": {}}, "kernel_regularizer": null, "bias_regularizer": null, "activity_regularizer": null, "kernel_constraint": null, "bias_constraint": null}, "name": "dense_21", "inbound_nodes": [[["activation_110", 0, 0, {}]], [["activation_110", 1, 0, {}]]]}, {"class_name": "Dense", "config": {"name": "dense_29", "trainable": true, "dtype": {"class_name": "Policy", "config": {"name": "mixed_float16"}}, "units": 384, "activation": "linear", "use_bias": true, "kernel_initializer": {"class_name": "VarianceScaling", "config": {"scale": 2.0, "mode": "fan_in", "distribution": "truncated_normal", "seed": null}}, "bias_initializer": {"class_name": "Zeros", "config": {}}, "kernel_regularizer": null, "bias_regularizer": null, "activity_regularizer": null, "kernel_constraint": null, "bias_constraint": null}, "name": "dense_29", "inbound_nodes": [[["activation_154", 0, 0, {}]], [["activation_154", 1, 0, {}]]]}, {"class_name": "Activation", "config": {"name": "activation_89", "trainable": true, "dtype": {"class_name": "Policy", "config": {"name": "mixed_float16"}}, "activation": "sigmoid"}, "name": "activation_89", "inbound_nodes": [[["dense_17", 0, 0, {}]], [["dense_17", 1, 0, {}]]]}, {"class_name": "Activation", "config": {"name": "activation_111", "trainable": true, "dtype": {"class_name": "Policy", "config": {"name": "mixed_float16"}}, "activation": "sigmoid"}, "name": "activation_111", "inbound_nodes": [[["dense_21", 0, 0, {}]], [["dense_21", 1, 0, {}]]]}, {"class_name": "Activation", "config": {"name": "activation_155", "trainable": true, "dtype": {"class_name": "Policy", "config": {"name": "mixed_float16"}}, "activation": "sigmoid"}, "name": "activation_155", "inbound_nodes": [[["dense_29", 0, 0, {}]], [["dense_29", 1, 0, {}]]]}, {"class_name": "Add", "config": {"name": "add_8", "trainable": true, "dtype": {"class_name": "Policy", "config": {"name": "mixed_float16"}}}, "name": "add_8", "inbound_nodes": [[["activation_89", 0, 0, {}], ["activation_89", 1, 0, {}]]]}, {"class_name": "Add", "config": {"name": "add_10", "trainable": true, "dtype": {"class_name": "Policy", "config": {"name": "mixed_float16"}}}, "name": "add_10", "inbound_nodes": [[["activation_111", 0, 0, {}], ["activation_111", 1, 0, {}]]]}, {"class_name": "Add", "config": {"name": "add_14", "trainable": true, "dtype": {"class_name": "Policy", "config": {"name": "mixed_float16"}}}, "name": "add_14", "inbound_nodes": [[["activation_155", 0, 0, {}], ["activation_155", 1, 0, {}]]]}, {"class_name": "Activation", "config": {"name": "activation_90", "trainable": true, "dtype": {"class_name": "Policy", "config": {"name": "mixed_float16"}}, "activation": "sigmoid"}, "name": "activation_90", "inbound_nodes": [[["add_8", 0, 0, {}]]]}, {"class_name": "Activation", "config": {"name": "activation_112", "trainable": true, "dtype": {"class_name": "Policy", "config": {"name": "mixed_float16"}}, "activation": "sigmoid"}, "name": "activation_112", "inbound_nodes": [[["add_10", 0, 0, {}]]]}, {"class_name": "Activation", "config": {"name": "activation_156", "trainable": true, "dtype": {"class_name": "Policy", "config": {"name": "mixed_float16"}}, "activation": "sigmoid"}, "name": "activation_156", "inbound_nodes": [[["add_14", 0, 0, {}]]]}, {"class_name": "Multiply", "config": {"name": "multiply_16", "trainable": true, "dtype": {"class_name": "Policy", "config": {"name": "mixed_float16"}}}, "name": "multiply_16", "inbound_nodes": [[["batch_normalization_68", 0, 0, {}], ["activation_90", 0, 0, {}]]]}, {"class_name": "Multiply", "config": {"name": "multiply_20", "trainable": true, "dtype": {"class_name": "Policy", "config": {"name": "mixed_float16"}}}, "name": "multiply_20", "inbound_nodes": [[["batch_normalization_86", 0, 0, {}], ["activation_112", 0, 0, {}]]]}, {"class_name": "Multiply", "config": {"name": "multiply_28", "trainable": true, "dtype": {"class_name": "Policy", "config": {"name": "mixed_float16"}}}, "name": "multiply_28", "inbound_nodes": [[["batch_normalization_119", 0, 0, {}], ["activation_156", 0, 0, {}]]]}, {"class_name": "Lambda", "config": {"name": "lambda_24", "trainable": true, "dtype": {"class_name": "Policy", "config": {"name": "mixed_float16"}}, "function": ["4wEAAAAAAAAAAQAAAAUAAABTAAAAcxAAAAB0AGoBfABkAWQCZAONA1MAKQRO6f////9UKQLaBGF4\naXPaCGtlZXBkaW1zKQLaAUvaBG1lYW4pAdoBeKkAcgcAAAD6TS4vY2JhbV9pbmNlcHRpb25fdGZp\nb19uZXdfZG91YmxlX2F0dGVudGlvbl9yYWRhbV9sYXN0X2xheWVyX2F0dGVudGlvbl9taXNoLnB5\n2gg8bGFtYmRhPmMBAADzAAAAAA==\n", null, null], "function_type": "lambda", "module": "__main__", "output_shape": null, "output_shape_type": "raw", "output_shape_module": null, "arguments": {}}, "name": "lambda_24", "inbound_nodes": [[["multiply_16", 0, 0, {}]]]}, {"class_name": "Lambda", "config": {"name": "lambda_25", "trainable": true, "dtype": {"class_name": "Policy", "config": {"name": "mixed_float16"}}, "function": ["4wEAAAAAAAAAAQAAAAUAAABTAAAAcxAAAAB0AGoBfABkAWQCZAONA1MAKQRO6f////9UKQLaBGF4\naXPaCGtlZXBkaW1zKQLaAUvaA21heCkB2gF4qQByBwAAAPpNLi9jYmFtX2luY2VwdGlvbl90Zmlv\nX25ld19kb3VibGVfYXR0ZW50aW9uX3JhZGFtX2xhc3RfbGF5ZXJfYXR0ZW50aW9uX21pc2gucHna\nCDxsYW1iZGE+ZgEAAPMAAAAA\n", null, null], "function_type": "lambda", "module": "__main__", "output_shape": null, "output_shape_type": "raw", "output_shape_module": null, "arguments": {}}, "name": "lambda_25", "inbound_nodes": [[["multiply_16", 0, 0, {}]]]}, {"class_name": "Lambda", "config": {"name": "lambda_30", "trainable": true, "dtype": {"class_name": "Policy", "config": {"name": "mixed_float16"}}, "function": ["4wEAAAAAAAAAAQAAAAUAAABTAAAAcxAAAAB0AGoBfABkAWQCZAONA1MAKQRO6f////9UKQLaBGF4\naXPaCGtlZXBkaW1zKQLaAUvaBG1lYW4pAdoBeKkAcgcAAAD6TS4vY2JhbV9pbmNlcHRpb25fdGZp\nb19uZXdfZG91YmxlX2F0dGVudGlvbl9yYWRhbV9sYXN0X2xheWVyX2F0dGVudGlvbl9taXNoLnB5\n2gg8bGFtYmRhPmMBAADzAAAAAA==\n", null, null], "function_type": "lambda", "module": "__main__", "output_shape": null, "output_shape_type": "raw", "output_shape_module": null, "arguments": {}}, "name": "lambda_30", "inbound_nodes": [[["multiply_20", 0, 0, {}]]]}, {"class_name": "Lambda", "config": {"name": "lambda_31", "trainable": true, "dtype": {"class_name": "Policy", "config": {"name": "mixed_float16"}}, "function": ["4wEAAAAAAAAAAQAAAAUAAABTAAAAcxAAAAB0AGoBfABkAWQCZAONA1MAKQRO6f////9UKQLaBGF4\naXPaCGtlZXBkaW1zKQLaAUvaA21heCkB2gF4qQByBwAAAPpNLi9jYmFtX2luY2VwdGlvbl90Zmlv\nX25ld19kb3VibGVfYXR0ZW50aW9uX3JhZGFtX2xhc3RfbGF5ZXJfYXR0ZW50aW9uX21pc2gucHna\nCDxsYW1iZGE+ZgEAAPMAAAAA\n", null, null], "function_type": "lambda", "module": "__main__", "output_shape": null, "output_shape_type": "raw", "output_shape_module": null, "arguments": {}}, "name": "lambda_31", "inbound_nodes": [[["multiply_20", 0, 0, {}]]]}, {"class_name": "Lambda", "config": {"name": "lambda_42", "trainable": true, "dtype": {"class_name": "Policy", "config": {"name": "mixed_float16"}}, "function": ["4wEAAAAAAAAAAQAAAAUAAABTAAAAcxAAAAB0AGoBfABkAWQCZAONA1MAKQRO6f////9UKQLaBGF4\naXPaCGtlZXBkaW1zKQLaAUvaBG1lYW4pAdoBeKkAcgcAAAD6TS4vY2JhbV9pbmNlcHRpb25fdGZp\nb19uZXdfZG91YmxlX2F0dGVudGlvbl9yYWRhbV9sYXN0X2xheWVyX2F0dGVudGlvbl9taXNoLnB5\n2gg8bGFtYmRhPmMBAADzAAAAAA==\n", null, null], "function_type": "lambda", "module": "__main__", "output_shape": null, "output_shape_type": "raw", "output_shape_module": null, "arguments": {}}, "name": "lambda_42", "inbound_nodes": [[["multiply_28", 0, 0, {}]]]}, {"class_name": "Lambda", "config": {"name": "lambda_43", "trainable": true, "dtype": {"class_name": "Policy", "config": {"name": "mixed_float16"}}, "function": ["4wEAAAAAAAAAAQAAAAUAAABTAAAAcxAAAAB0AGoBfABkAWQCZAONA1MAKQRO6f////9UKQLaBGF4\naXPaCGtlZXBkaW1zKQLaAUvaA21heCkB2gF4qQByBwAAAPpNLi9jYmFtX2luY2VwdGlvbl90Zmlv\nX25ld19kb3VibGVfYXR0ZW50aW9uX3JhZGFtX2xhc3RfbGF5ZXJfYXR0ZW50aW9uX21pc2gucHna\nCDxsYW1iZGE+ZgEAAPMAAAAA\n", null, null], "function_type": "lambda", "module": "__main__", "output_shape": null, "output_shape_type": "raw", "output_shape_module": null, "arguments": {}}, "name": "lambda_43", "inbound_nodes": [[["multiply_28", 0, 0, {}]]]}, {"class_name": "Concatenate", "config": {"name": "concatenate_17", "trainable": true, "dtype": {"class_name": "Policy", "config": {"name": "mixed_float16"}}, "axis": -1}, "name": "concatenate_17", "inbound_nodes": [[["lambda_24", 0, 0, {}], ["lambda_25", 0, 0, {}]]]}, {"class_name": "Concatenate", "config": {"name": "concatenate_21", "trainable": true, "dtype": {"class_name": "Policy", "config": {"name": "mixed_float16"}}, "axis": -1}, "name": "concatenate_21", "inbound_nodes": [[["lambda_30", 0, 0, {}], ["lambda_31", 0, 0, {}]]]}, {"class_name": "Concatenate", "config": {"name": "concatenate_29", "trainable": true, "dtype": {"class_name": "Policy", "config": {"name": "mixed_float16"}}, "axis": -1}, "name": "concatenate_29", "inbound_nodes": [[["lambda_42", 0, 0, {}], ["lambda_43", 0, 0, {}]]]}, {"class_name": "Conv1D", "config": {"name": "conv1d_69", "trainable": true, "dtype": {"class_name": "Policy", "config": {"name": "mixed_float16"}}, "filters": 1, "kernel_size": [7], "strides": [1], "padding": "same", "data_format": "channels_last", "dilation_rate": [1], "activation": "linear", "use_bias": false, "kernel_initializer": {"class_name": "GlorotUniform", "config": {"seed": null}}, "bias_initializer": {"class_name": "Zeros", "config": {}}, "kernel_regularizer": null, "bias_regularizer": null, "activity_regularizer": null, "kernel_constraint": null, "bias_constraint": null}, "name": "conv1d_69", "inbound_nodes": [[["concatenate_17", 0, 0, {}]]]}, {"class_name": "Conv1D", "config": {"name": "conv1d_87", "trainable": true, "dtype": {"class_name": "Policy", "config": {"name": "mixed_float16"}}, "filters": 1, "kernel_size": [7], "strides": [1], "padding": "same", "data_format": "channels_last", "dilation_rate": [1], "activation": "linear", "use_bias": false, "kernel_initializer": {"class_name": "GlorotUniform", "config": {"seed": null}}, "bias_initializer": {"class_name": "Zeros", "config": {}}, "kernel_regularizer": null, "bias_regularizer": null, "activity_regularizer": null, "kernel_constraint": null, "bias_constraint": null}, "name": "conv1d_87", "inbound_nodes": [[["concatenate_21", 0, 0, {}]]]}, {"class_name": "Conv1D", "config": {"name": "conv1d_120", "trainable": true, "dtype": {"class_name": "Policy", "config": {"name": "mixed_float16"}}, "filters": 1, "kernel_size": [7], "strides": [1], "padding": "same", "data_format": "channels_last", "dilation_rate": [1], "activation": "linear", "use_bias": false, "kernel_initializer": {"class_name": "GlorotUniform", "config": {"seed": null}}, "bias_initializer": {"class_name": "Zeros", "config": {}}, "kernel_regularizer": null, "bias_regularizer": null, "activity_regularizer": null, "kernel_constraint": null, "bias_constraint": null}, "name": "conv1d_120", "inbound_nodes": [[["concatenate_29", 0, 0, {}]]]}, {"class_name": "Conv1D", "config": {"name": "conv1d_70", "trainable": true, "dtype": {"class_name": "Policy", "config": {"name": "mixed_float16"}}, "filters": 384, "kernel_size": [1], "strides": [1], "padding": "same", "data_format": "channels_last", "dilation_rate": [1], "activation": "linear", "use_bias": true, "kernel_initializer": {"class_name": "VarianceScaling", "config": {"scale": 2.0, "mode": "fan_in", "distribution": "truncated_normal", "seed": null}}, "bias_initializer": {"class_name": "Zeros", "config": {}}, "kernel_regularizer": {"class_name": "L1L2", "config": {"l1": 0.0, "l2": 9.999999747378752e-05}}, "bias_regularizer": null, "activity_regularizer": null, "kernel_constraint": null, "bias_constraint": null}, "name": "conv1d_70", "inbound_nodes": [[["conv1d_61", 0, 0, {}]]]}, {"class_name": "Activation", "config": {"name": "activation_91", "trainable": true, "dtype": {"class_name": "Policy", "config": {"name": "mixed_float16"}}, "activation": "sigmoid"}, "name": "activation_91", "inbound_nodes": [[["conv1d_69", 0, 0, {}]]]}, {"class_name": "Activation", "config": {"name": "activation_113", "trainable": true, "dtype": {"class_name": "Policy", "config": {"name": "mixed_float16"}}, "activation": "sigmoid"}, "name": "activation_113", "inbound_nodes": [[["conv1d_87", 0, 0, {}]]]}, {"class_name": "Activation", "config": {"name": "activation_157", "trainable": true, "dtype": {"class_name": "Policy", "config": {"name": "mixed_float16"}}, "activation": "sigmoid"}, "name": "activation_157", "inbound_nodes": [[["conv1d_120", 0, 0, {}]]]}, {"class_name": "BatchNormalization", "config": {"name": "batch_normalization_69", "trainable": true, "dtype": {"class_name": "Policy", "config": {"name": "mixed_float16"}}, "axis": [2], "momentum": 0.99, "epsilon": 0.001, "center": true, "scale": true, "beta_initializer": {"class_name": "Zeros", "config": {}}, "gamma_initializer": {"class_name": "Ones", "config": {}}, "moving_mean_initializer": {"class_name": "Zeros", "config": {}}, "moving_variance_initializer": {"class_name": "Ones", "config": {}}, "beta_regularizer": null, "gamma_regularizer": null, "beta_constraint": null, "gamma_constraint": null}, "name": "batch_normalization_69", "inbound_nodes": [[["conv1d_70", 0, 0, {}]]]}, {"class_name": "Multiply", "config": {"name": "multiply_17", "trainable": true, "dtype": {"class_name": "Policy", "config": {"name": "mixed_float16"}}}, "name": "multiply_17", "inbound_nodes": [[["multiply_16", 0, 0, {}], ["activation_91", 0, 0, {}]]]}, {"class_name": "Multiply", "config": {"name": "multiply_21", "trainable": true, "dtype": {"class_name": "Policy", "config": {"name": "mixed_float16"}}}, "name": "multiply_21", "inbound_nodes": [[["multiply_20", 0, 0, {}], ["activation_113", 0, 0, {}]]]}, {"class_name": "Multiply", "config": {"name": "multiply_29", "trainable": true, "dtype": {"class_name": "Policy", "config": {"name": "mixed_float16"}}}, "name": "multiply_29", "inbound_nodes": [[["multiply_28", 0, 0, {}], ["activation_157", 0, 0, {}]]]}, {"class_name": "Lambda", "config": {"name": "lambda_26", "trainable": true, "dtype": {"class_name": "Policy", "config": {"name": "mixed_float16"}}, "function": ["4wIAAAAAAAAAAgAAAAMAAABTAAAAcxQAAAB8AGQBGQB8AGQCGQB8ARQAFwBTACkDTukAAAAA6QEA\nAACpACkC2gZpbnB1dHPaBXNjYWxlcgMAAAByAwAAAPpNLi9jYmFtX2luY2VwdGlvbl90ZmlvX25l\nd19kb3VibGVfYXR0ZW50aW9uX3JhZGFtX2xhc3RfbGF5ZXJfYXR0ZW50aW9uX21pc2gucHnaCDxs\nYW1iZGE+8gEAAPMAAAAA\n", null, null], "function_type": "lambda", "module": "__main__", "output_shape": [31, 384], "output_shape_type": "raw", "output_shape_module": null, "arguments": {"scale": 0.2}}, "name": "lambda_26", "inbound_nodes": [[["batch_normalization_69", 0, 0, {}], ["multiply_17", 0, 0, {}]]]}, {"class_name": "Lambda", "config": {"name": "lambda_32", "trainable": true, "dtype": {"class_name": "Policy", "config": {"name": "mixed_float16"}}, "function": ["4wIAAAAAAAAAAgAAAAMAAABTAAAAcxQAAAB8AGQBGQB8AGQCGQB8ARQAFwBTACkDTukAAAAA6QEA\nAACpACkC2gZpbnB1dHPaBXNjYWxlcgMAAAByAwAAAPpNLi9jYmFtX2luY2VwdGlvbl90ZmlvX25l\nd19kb3VibGVfYXR0ZW50aW9uX3JhZGFtX2xhc3RfbGF5ZXJfYXR0ZW50aW9uX21pc2gucHnaCDxs\nYW1iZGE+8gEAAPMAAAAA\n", null, null], "function_type": "lambda", "module": "__main__", "output_shape": [31, 384], "output_shape_type": "raw", "output_shape_module": null, "arguments": {"scale": 0.2}}, "name": "lambda_32", "inbound_nodes": [[["lambda_29", 0, 0, {}], ["multiply_21", 0, 0, {}]]]}, {"class_name": "Lambda", "config": {"name": "lambda_44", "trainable": true, "dtype": {"class_name": "Policy", "config": {"name": "mixed_float16"}}, "function": ["4wIAAAAAAAAAAgAAAAMAAABTAAAAcxQAAAB8AGQBGQB8AGQCGQB8ARQAFwBTACkDTukAAAAA6QEA\nAACpACkC2gZpbnB1dHPaBXNjYWxlcgMAAAByAwAAAPpNLi9jYmFtX2luY2VwdGlvbl90ZmlvX25l\nd19kb3VibGVfYXR0ZW50aW9uX3JhZGFtX2xhc3RfbGF5ZXJfYXR0ZW50aW9uX21pc2gucHnaCDxs\nYW1iZGE+8gEAAPMAAAAA\n", null, null], "function_type": "lambda", "module": "__main__", "output_shape": [31, 384], "output_shape_type": "raw", "output_shape_module": null, "arguments": {"scale": 0.2}}, "name": "lambda_44", "inbound_nodes": [[["lambda_41", 0, 0, {}], ["multiply_29", 0, 0, {}]]]}, {"class_name": "Conv1D", "config": {"name": "conv1d_121", "trainable": true, "dtype": {"class_name": "Policy", "config": {"name": "mixed_float16"}}, "filters": 1152, "kernel_size": [1], "strides": [2], "padding": "same", "data_format": "channels_last", "dilation_rate": [1], "activation": "linear", "use_bias": true, "kernel_initializer": {"class_name": "VarianceScaling", "config": {"scale": 2.0, "mode": "fan_in", "distribution": "truncated_normal", "seed": null}}, "bias_initializer": {"class_name": "Zeros", "config": {}}, "kernel_regularizer": {"class_name": "L1L2", "config": {"l1": 0.0, "l2": 9.999999747378752e-05}}, "bias_regularizer": null, "activity_regularizer": null, "kernel_constraint": null, "bias_constraint": null}, "name": "conv1d_121", "inbound_nodes": [[["lambda_23", 0, 0, {}]]]}, {"class_name": "Concatenate", "config": {"name": "concatenate_30", "trainable": true, "dtype": {"class_name": "Policy", "config": {"name": "mixed_float16"}}, "axis": -1}, "name": "concatenate_30", "inbound_nodes": [[["lambda_26", 0, 0, {}], ["lambda_32", 0, 0, {}], ["lambda_44", 0, 0, {}]]]}, {"class_name": "BatchNormalization", "config": {"name": "batch_normalization_121", "trainable": true, "dtype": {"class_name": "Policy", "config": {"name": "mixed_float16"}}, "axis": [2], "momentum": 0.99, "epsilon": 0.001, "center": true, "scale": true, "beta_initializer": {"class_name": "Zeros", "config": {}}, "gamma_initializer": {"class_name": "Ones", "config": {}}, "moving_mean_initializer": {"class_name": "Zeros", "config": {}}, "moving_variance_initializer": {"class_name": "Ones", "config": {}}, "beta_regularizer": null, "gamma_regularizer": null, "beta_constraint": null, "gamma_constraint": null}, "name": "batch_normalization_121", "inbound_nodes": [[["conv1d_121", 0, 0, {}]]]}, {"class_name": "BatchNormalization", "config": {"name": "batch_normalization_120", "trainable": true, "dtype": {"class_name": "Policy", "config": {"name": "mixed_float16"}}, "axis": [2], "momentum": 0.99, "epsilon": 0.001, "center": true, "scale": true, "beta_initializer": {"class_name": "Zeros", "config": {}}, "gamma_initializer": {"class_name": "Ones", "config": {}}, "moving_mean_initializer": {"class_name": "Zeros", "config": {}}, "moving_variance_initializer": {"class_name": "Ones", "config": {}}, "beta_regularizer": null, "gamma_regularizer": null, "beta_constraint": null, "gamma_constraint": null}, "name": "batch_normalization_120", "inbound_nodes": [[["concatenate_30", 0, 0, {}]]]}, {"class_name": "Lambda", "config": {"name": "lambda_45", "trainable": true, "dtype": {"class_name": "Policy", "config": {"name": "mixed_float16"}}, "function": ["4wIAAAAAAAAAAgAAAAMAAABTAAAAcxQAAAB8AGQBGQB8AGQCGQB8ARQAFwBTACkDTukAAAAA6QEA\nAACpACkC2gZpbnB1dHPaBXNjYWxlcgMAAAByAwAAAPpNLi9jYmFtX2luY2VwdGlvbl90ZmlvX25l\nd19kb3VibGVfYXR0ZW50aW9uX3JhZGFtX2xhc3RfbGF5ZXJfYXR0ZW50aW9uX21pc2gucHnaCDxs\nYW1iZGE+dAIAAPMAAAAA\n", null, null], "function_type": "lambda", "module": "__main__", "output_shape": [31, 1152], "output_shape_type": "raw", "output_shape_module": null, "arguments": {"scale": 0.2}}, "name": "lambda_45", "inbound_nodes": [[["batch_normalization_121", 0, 0, {}], ["batch_normalization_120", 0, 0, {}]]]}, {"class_name": "Conv1D", "config": {"name": "conv1d_122", "trainable": true, "dtype": {"class_name": "Policy", "config": {"name": "mixed_float16"}}, "filters": 192, "kernel_size": [11], "strides": [1], "padding": "same", "data_format": "channels_last", "dilation_rate": [1], "activation": "linear", "use_bias": true, "kernel_initializer": {"class_name": "GlorotUniform", "config": {"seed": null}}, "bias_initializer": {"class_name": "Zeros", "config": {}}, "kernel_regularizer": null, "bias_regularizer": null, "activity_regularizer": null, "kernel_constraint": null, "bias_constraint": null}, "name": "conv1d_122", "inbound_nodes": [[["lambda_45", 0, 0, {}]]]}, {"class_name": "Activation", "config": {"name": "activation_158", "trainable": true, "dtype": {"class_name": "Policy", "config": {"name": "mixed_float16"}}, "activation": {"class_name": "Mish", "config": {"name": "mish", "trainable": true, "dtype": {"class_name": "Policy", "config": {"name": "mixed_float16"}}, "activation": "Addons>mish"}}}, "name": "activation_158", "inbound_nodes": [[["conv1d_122", 0, 0, {}]]]}, {"class_name": "Dropout", "config": {"name": "dropout_98", "trainable": true, "dtype": {"class_name": "Policy", "config": {"name": "mixed_float16"}}, "rate": 0.3, "noise_shape": null, "seed": null}, "name": "dropout_98", "inbound_nodes": [[["activation_158", 0, 0, {}]]]}, {"class_name": "BatchNormalization", "config": {"name": "batch_normalization_122", "trainable": true, "dtype": {"class_name": "Policy", "config": {"name": "mixed_float16"}}, "axis": [2], "momentum": 0.99, "epsilon": 0.001, "center": true, "scale": true, "beta_initializer": {"class_name": "Zeros", "config": {}}, "gamma_initializer": {"class_name": "Ones", "config": {}}, "moving_mean_initializer": {"class_name": "Zeros", "config": {}}, "moving_variance_initializer": {"class_name": "Ones", "config": {}}, "beta_regularizer": null, "gamma_regularizer": null, "beta_constraint": null, "gamma_constraint": null}, "name": "batch_normalization_122", "inbound_nodes": [[["dropout_98", 0, 0, {}]]]}, {"class_name": "GlobalAveragePooling1D", "config": {"name": "global_average_pooling1d_15", "trainable": true, "dtype": {"class_name": "Policy", "config": {"name": "mixed_float16"}}, "data_format": "channels_last"}, "name": "global_average_pooling1d_15", "inbound_nodes": [[["batch_normalization_122", 0, 0, {}]]]}, {"class_name": "GlobalMaxPooling1D", "config": {"name": "global_max_pooling1d_15", "trainable": true, "dtype": {"class_name": "Policy", "config": {"name": "mixed_float16"}}, "data_format": "channels_last"}, "name": "global_max_pooling1d_15", "inbound_nodes": [[["batch_normalization_122", 0, 0, {}]]]}, {"class_name": "Reshape", "config": {"name": "reshape_30", "trainable": true, "dtype": {"class_name": "Policy", "config": {"name": "mixed_float16"}}, "target_shape": [1, 192]}, "name": "reshape_30", "inbound_nodes": [[["global_average_pooling1d_15", 0, 0, {}]]]}, {"class_name": "Reshape", "config": {"name": "reshape_31", "trainable": true, "dtype": {"class_name": "Policy", "config": {"name": "mixed_float16"}}, "target_shape": [1, 192]}, "name": "reshape_31", "inbound_nodes": [[["global_max_pooling1d_15", 0, 0, {}]]]}, {"class_name": "Dense", "config": {"name": "dense_30", "trainable": true, "dtype": {"class_name": "Policy", "config": {"name": "mixed_float16"}}, "units": 24, "activation": "linear", "use_bias": true, "kernel_initializer": {"class_name": "VarianceScaling", "config": {"scale": 2.0, "mode": "fan_in", "distribution": "truncated_normal", "seed": null}}, "bias_initializer": {"class_name": "Zeros", "config": {}}, "kernel_regularizer": null, "bias_regularizer": null, "activity_regularizer": null, "kernel_constraint": null, "bias_constraint": null}, "name": "dense_30", "inbound_nodes": [[["reshape_30", 0, 0, {}]], [["reshape_31", 0, 0, {}]]]}, {"class_name": "Activation", "config": {"name": "activation_159", "trainable": true, "dtype": {"class_name": "Policy", "config": {"name": "mixed_float16"}}, "activation": "relu"}, "name": "activation_159", "inbound_nodes": [[["dense_30", 0, 0, {}]], [["dense_30", 1, 0, {}]]]}, {"class_name": "Dense", "config": {"name": "dense_31", "trainable": true, "dtype": {"class_name": "Policy", "config": {"name": "mixed_float16"}}, "units": 192, "activation": "linear", "use_bias": true, "kernel_initializer": {"class_name": "VarianceScaling", "config": {"scale": 2.0, "mode": "fan_in", "distribution": "truncated_normal", "seed": null}}, "bias_initializer": {"class_name": "Zeros", "config": {}}, "kernel_regularizer": null, "bias_regularizer": null, "activity_regularizer": null, "kernel_constraint": null, "bias_constraint": null}, "name": "dense_31", "inbound_nodes": [[["activation_159", 0, 0, {}]], [["activation_159", 1, 0, {}]]]}, {"class_name": "Activation", "config": {"name": "activation_160", "trainable": true, "dtype": {"class_name": "Policy", "config": {"name": "mixed_float16"}}, "activation": "sigmoid"}, "name": "activation_160", "inbound_nodes": [[["dense_31", 0, 0, {}]], [["dense_31", 1, 0, {}]]]}, {"class_name": "Add", "config": {"name": "add_15", "trainable": true, "dtype": {"class_name": "Policy", "config": {"name": "mixed_float16"}}}, "name": "add_15", "inbound_nodes": [[["activation_160", 0, 0, {}], ["activation_160", 1, 0, {}]]]}, {"class_name": "Activation", "config": {"name": "activation_161", "trainable": true, "dtype": {"class_name": "Policy", "config": {"name": "mixed_float16"}}, "activation": "sigmoid"}, "name": "activation_161", "inbound_nodes": [[["add_15", 0, 0, {}]]]}, {"class_name": "Multiply", "config": {"name": "multiply_30", "trainable": true, "dtype": {"class_name": "Policy", "config": {"name": "mixed_float16"}}}, "name": "multiply_30", "inbound_nodes": [[["batch_normalization_122", 0, 0, {}], ["activation_161", 0, 0, {}]]]}, {"class_name": "Flatten", "config": {"name": "flatten", "trainable": true, "dtype": {"class_name": "Policy", "config": {"name": "mixed_float16"}}, "data_format": "channels_last"}, "name": "flatten", "inbound_nodes": [[["multiply_30", 0, 0, {}]]]}, {"class_name": "Dense", "config": {"name": "dense_32", "trainable": true, "dtype": "float32", "units": 1024, "activation": "softmax", "use_bias": true, "kernel_initializer": {"class_name": "GlorotUniform", "config": {"seed": null}}, "bias_initializer": {"class_name": "Zeros", "config": {}}, "kernel_regularizer": null, "bias_regularizer": null, "activity_regularizer": null, "kernel_constraint": null, "bias_constraint": null}, "name": "dense_32", "inbound_nodes": [[["flatten", 0, 0, {}]]]}, {"class_name": "Dropout", "config": {"name": "dropout_99", "trainable": true, "dtype": {"class_name": "Policy", "config": {"name": "mixed_float16"}}, "rate": 0.3, "noise_shape": null, "seed": null}, "name": "dropout_99", "inbound_nodes": [[["dense_32", 0, 0, {}]]]}, {"class_name": "Dense", "config": {"name": "dense_33", "trainable": true, "dtype": "float32", "units": 16, "activation": "softmax", "use_bias": true, "kernel_initializer": {"class_name": "GlorotUniform", "config": {"seed": null}}, "bias_initializer": {"class_name": "Zeros", "config": {}}, "kernel_regularizer": null, "bias_regularizer": null, "activity_regularizer": null, "kernel_constraint": null, "bias_constraint": null}, "name": "dense_33", "inbound_nodes": [[["dropout_99", 0, 0, {}]]]}], "input_layers": [["input_1", 0, 0]], "output_layers": [["dense_33", 0, 0]]}, "keras_version": "2.2.4-tf", "backend": "tensorflow"}